Algorithm/OCR/digits/model/net.pkl (torch_old, 483863 bytes, 12 tensors)

conv1_1.0.weight f4 [16, 1, 3, 3]
-0.07733478 -0.03442577 -0.18918797 0.08508315 -0.1827829 -0.044745933 0.18307744 0.4450253
0.15140542 -0.10573821 0.059326213 -0.06108445 0.1988956 0.10849019 0.1951216 0.39957362
-0.09092821 -0.0024981492 0.05214686 -0.03699497 -0.04802703 -0.3745037 -0.36989394 -0.3701106
-0.37455595 -0.38081613 -0.3166401 -0.2890867 -0.30596852 0.17007586 0.2950813 0.32220832
0.24665932 0.1597305 0.19977345 -0.14946954 0.33613575 0.014872828 0.29505762 0.14185458
0.3393414 0.32169318 -0.026711516 -0.065561645 0.09235862 -0.020380665 0.028071173 0.18040629
-0.31761172 -0.08442335 -0.29896232 0.3255694 -0.29520488 0.017151974 -0.08726677 0.20723124
0.0003599307 -0.018895583 0.27244896 0.37816057 -0.29943967 -0.38480046 0.040221702 0.14531848
0.13100703 0.37495473 0.19092745 -0.14597857 -0.22390677 0.31645343 0.39669582 -0.14364952
-0.22188655 0.11618527 -0.21457289 -0.12090842 -0.36653066 0.10208067 -0.15856801 -0.2350218
-0.21889246 -0.08585611 0.25217745 0.04685468 0.37333727 -0.09763086 -0.06988825 0.4058376
-0.30889112 -0.1283841 -0.22642316 0.36304623 0.24157363 -0.115872785 -0.16850714 0.15279905
-0.19575348 0.1224817 -0.20473258 -0.18555744 0.005727929 0.22162127 0.34636313 0.13041417
-0.16235054 0.21906975 0.18320826 0.21217988 -0.06560437 -0.013893454 0.16215573 0.18379945
0.29378843 -0.17217849 0.2490826 -0.08901696 0.005971185 -0.22242579 -0.089737445 0.21790415
0.32569107 0.08677325 -0.32044095 -0.16116706 0.23476814 -0.15255234 -0.325976 0.02276857
-0.3423419 -0.056739174 -0.11906385 -0.036785085 -0.131474 -0.10199045 -0.24903537 -0.26841494
0.13308406 0.31836465 -0.3132778 -0.43804222 -0.27488375 0.3232893 0.30817848 -0.39023125
00000000: b261 9ebd 0902 0dbd 7eba 41be 1340 ae3d
00000010: 712b 3bbe 8347 37bd a778 3b3e 5bda e33e
00000020: 060a 1b3e 468d d8bd 0b00 733d b033 7abd
00000030: 4aab 4b3e 1b30 de3d f5cd 473e ea94 cc3e
00000040: 9238 babd fdb7 23bb f297 553d 0a88 17bd
00000050: feb7 44bd f3be bfbe bd62 bdbe 237f bdbe
00000060: ccc5 bfbe 55fa c2be a71e a2be 2c03 94be
00000070: e8a7 9cbe 5e28 2e3e e514 973e 7df8 a43e
00000080: 4394 7c3e 6490 233e 6991 4c3e 8b0e 19be
00000090: fc19 ac3e 29ad 733c cb11 973e 5442 113e
000000a0: 28be ad3e f8b4 a43e 1cd2 dabc 2f45 86bd
000000b0: 8426 bd3d 5af5 a6bc 84f5 e53c 6dbc 383e
000000c0: 019e a2be 26e6 acbd 9711 99be 08b1 a63e
000000d0: 1825 97be 4c82 8c3c ecb8 b2bd 6d34 543e
000000e0: 15b5 bc39 e9ca 9abc 6e7e 8b3e 439e c13e
000000f0: 2850 99be 9104 c5be 83bf 243d 5ece 143e
00000100: b526 063e 11fa bf3e 7c82 433e 687b 15be
00000110: d147 65be 2f06 a23e b71b cb3e dc18 13be
00000120: 3a36 63be 8bf2 ed3d ffb8 5bbe d59e f7bd
00000130: e8a9 bbbe ac0f d13d a75f 22be 8ea9 70be
00000140: 5825 60be 54d5 afbd 671d 813e b1ea 3f3d
00000150: 1026 bf3e b0f2 c7bd 9221 8fbd f2c9 cf3e
00000160: fa26 9ebe 1f77 03be 79db 67be 32e1 b93e
00000170: 145f 773e b64e edbd 238d 2cbe 5b77 1c3e
00000180: 9a73 48be afd7 fa3d 6ba5 51be c502 3ebe
00000190: 5ab1 bb3b b0f0 623e 8256 b13e 4b8b 053e
000001a0: 383f 26be d253 603e f29a 3b3e af45 593e
000001b0: 955b 86bd 5fa1 63bc 270c 263e ec35 3c3e
000001c0: 706b 963e 8f4f 30be 820f 7f3e 864e b6bd
000001d0: eea9 c33b 96c3 63be 44c8 b7bd 4422 5f3e
000001e0: fbc0 a63e 2cb6 b13d d610 a4be fa08 25be
000001f0: 0f67 703e ae36 1cbe 54e6 a6be 2785 ba3c
00000200: 7047 afbe 5667 68bd bfd7 f3bd f5ab 16bd
00000210: 1fa1 06be 5ee0 d0bd 2103 7fbe af6d 89be
00000220: 3047 083e b100 a33e f365 a0be 1247 e0be
00000230: 90bd 8cbe 2d86 a53e 92c9 9d3e 64cc c7be

conv1_1.0.bias f4 [16]
0.07663514 0.0259619 0.30152857 -0.09765476 0.09288188 -0.14307886 -0.2995632 0.03216472
-0.13410722 -0.034860734 -0.06149787 -0.2702334 0.16669266 0.20841633 0.25206655 0.05522193
00000000: e2f2 9c3d 0dae d43c f461 9a3e 38ff c7bd
00000010: db38 be3d 4483 12be 5960 99be 27bf 033d
00000020: 6753 09be 21ca 0ebd 31e5 7bbd 085c 8abe
00000030: 7bb1 2a3e 176b 553e de0e 813e 6430 623d

conv1_2.0.weight f4 [16, 16, 3, 3]
-0.20703176 -0.13731691 0.010778822 -0.062394038 0.06532271 -0.075464055 0.024439044 -0.05066347
0.06645572 0.01405611 0.02688321 0.0014354213 -0.08639774 0.06702082 -0.1265235 0.049590897
-0.04693483 0.0754853 0.056471165 0.035116117 0.0056441925 0.11224239 0.117853165 0.030902589
-0.031911526 0.0045215683 0.06070502 0.038330432 0.030014843 0.008694519 -0.023065625 -0.14143646
-0.11629259 0.13804398 0.008892498 -0.010960612 0.104486234 -0.032877237 -0.048122257 -0.0927341
0.037000574 0.025583634 0.040701415 -0.029368917 -0.05828979 0.05587169 -0.07049861 -0.079972126
0.10677973 0.08619303 -0.0262986 -0.103850596 0.0045603886 -0.011883038 0.082199536 0.072734214
-0.014602363 -0.076035336 -0.006170974 0.015948653 0.0004969709 -0.07400826 -0.021538906 -0.071324416
-0.04287927 0.107374825 0.07674633 0.07376742 0.06158901 -0.026272122 -0.05279461 0.03707657
0.05125738 0.015763916 0.044590145 0.045259047 0.04193304 -0.011535631 0.033704974 -0.094055876
0.05424752 0.0074700713 -0.022916261 0.07463702 0.073974505 0.011344373 -0.15500809 -0.09157067
0.031240012 -0.0130263595 0.037055 0.017584706 0.08484081 0.059547056 0.14286 -0.1721613
0.019772977 -0.014562815 0.023113577 -0.024562743 -0.06440216 0.07068029 -0.045426395 -0.11585286
-0.015382675 0.02245207 0.087563686 -0.07673254 -0.020198574 0.09198127 0.057384733 -0.05784979
-0.025507884 0.01641461 -0.047055285 0.07004279 0.008128428 -0.054597765 0.07046021 0.07215246
0.082127 -0.007665551 -0.08301789 0.057693988 0.06657384 0.019468471 -0.040814545 -0.01583046
0.087213404 -0.011858666 -0.014280334 -0.084674425 0.025062114 0.048578277 0.038856577 -0.050640397
-0.08826677 0.070698485 0.19457917 0.08250782 -0.1516311 -0.056010928 0.022105323 0.09329727
0.010312584 0.011045121 0.03489688 -0.11479544 -0.06132456 0.069607146 -0.047006983 0.018561468
0.08475464 0.08609001 -0.050658394 0.07424475 0.0032555587 -0.023734495 0.10486601 0.065022066
-0.11754056 0.054333627 -0.09753643 0.021595877 -0.10287162 0.08206049 -0.07242675 0.011979147
0.030113062 0.016437802 0.059228048 0.03775006 0.00583555 -0.030569093 0.009331242 0.02530085
-0.04687766 -0.034054946 0.045887075 0.00029384994 0.062671795 -0.014773468 0.06257614 0.015664354
0.093373485 0.08420793 0.032239035 0.027029013 -0.07465516 -0.044611625 -0.09549259 -0.08062066
0.065070435 -0.09095124 -0.018078955 0.0002117688 -0.05156792 -0.025558466 -0.016945472 0.12800108
0.07776199 -0.040218912 -0.04546599 0.02733854 -0.04779457 0.07772004 -0.010173013 -0.027752243
0.010749143 -0.04151252 0.009889939 0.09122482 0.1166517 0.024524923 -0.057506204 0.09111839
0.05331596 0.021074876 -0.07003271 -0.053901043 -0.08582353 -0.05458003 0.00020266698 0.033552352
0.025865112 0.08763251 -0.084562175 0.11693078 0.02291428 -0.16544193 0.026624741 0.09920048
-0.1209921 0.113826476 -0.13819551 0.15521249 -0.04608644 0.023804834 0.16278008 -0.018163064
-0.04847835 0.16972812 -0.0116630625 0.054094102 -0.016114293 0.00033039914 0.00096184044 -0.015032966
0.067593575 0.06338477 0.023548387 0.00040656124 -0.03852447 -0.000966439 0.056935143 0.070832774
00000000: 2200 54be ce9c 0cbe a899 303c e490 7fbd
00000010: eac7 853d e68c 9abd 6434 c83c 8084 4fbd
00000020: f019 883d 994b 663c 2d3a dc3c bf24 bc3a
00000030: 4cf1 b0bd 3642 893d 608f 01be d31f 4b3d
00000040: bc3e 40bd 0998 9a3d 4f4e 673d ebd5 0f3d
00000050: ebf2 b83b 57df e53d 005d f13d 6d27 fd3c
00000060: a9b5 02bd aa29 943b d4a5 783d 5f00 1d3d
00000070: b0e1 f53c 7573 0e3c 1ff4 bcbc b8d4 10be
00000080: cf2a eebd 675b 0d3e d7b1 113c 2494 33bc
00000090: e1fc d53d 48aa 06bd d81b 45bd 60eb bdbd
000000a0: ea8d 173d c594 d13c 87b6 263d 1597 f0bc
000000b0: 46c1 6ebd b7d9 643d 9361 90bd 6dc8 a3bd
000000c0: 55af da3d f985 b03d 2970 d7bc 9faf d4bd
000000d0: 506f 953b 13b1 42bc 3b58 a83d adf5 943d
000000e0: c03e 6fbc 6ab8 9bbd e235 cabb c0a6 823c
000000f0: 2747 023a a591 97bd 5c72 b0bc 8912 92bd
00000100: 2ca2 2fbd 55e7 db3d 2e2d 9d3d 6013 973d
00000110: c244 7c3d a238 d7bc 293f 58bd 9add 173d
00000120: 42f3 513d 5423 813c 28a4 363d 8d61 393d
00000130: fbc1 2b3d f1ff 3cbc 3a0e 0a3d 5ea0 c0bd
00000140: a632 5e3d 80c7 f43b e2ba bbbc 4bdb 983d
00000150: f27f 973d c0dd 393c 71ba 1ebe 6789 bbbd
00000160: 0eeb ff3c 836c 55bc fcc6 173d cd0d 903c
00000170: 05c1 ad3d 9de7 733d e449 123e 0d4b 30be
00000180: f0fa a13c e098 6ebc af58 bd3c ce37 c9bc
00000190: 48e5 83bd d4c0 903d 0711 3abd 4444 edbd
000001a0: 9e07 7cbc 67ed b73c 9754 b33d f325 9dbd
000001b0: 7b77 a5bc ad60 bc3d 410c 6b3d e7f3 6cbd
000001c0: e9f5 d0bc ef77 863c 0bbd 40bd 9872 8f3d
000001d0: 192d 053c e8a1 5fbd 714d 903d abc4 933d
000001e0: 3332 a83d 4d2f fbbb 4905 aabd 8850 6c3d
000001f0: de57 883d 587c 9f3c 272d 27bd e1ae 81bc
00000200: f19c b23d da4a 42bc 10f8 69bc c969 adbd
00000210: 104f cd3c 04fa 463d 1328 1f3d 4e6c 4fbd
00000220: 35c5 b4bd 5eca 903d c33f 473e dcf9 a83d
00000230: 2f45 1bbe b76b 65bd 3916 b53c a412 bf3d
00000240: 1df6 283c 98f6 343c 08f0 0e3d df19 ebbd
00000250: 762f 7bbd 318e 8e3d 658a 40bd 380e 983c
00000260: d793 ad3d f64f b03d 2d7f 4fbd a20d 983d
00000270: 365b 553b d86e c2bc fec3 d63d 4a2a 853d
00000280: 1bb9 f0bd f08c 5e3d 2ec1 c7bd d6e9 b03c
00000290: 5bae d2bd 550f a83d 7a54 94bd 2f44 443c
000002a0: abaf f63c 92a8 863c 1c99 723d cf9f 1a3d
000002b0: 2438 bf3b 096c fabc 11e2 183c ba43 cf3c
000002c0: ca02 40bd 337d 0bbd 16f4 3b3d df0f 9a39
000002d0: 125a 803d 6a0c 72bc eb27 803d 8852 803c
000002e0: 993a bf3d 3575 ac3d 140d 043d f36b dd3c
000002f0: cee4 98bd aeba 36bd 9e91 c3bd 721c a5bd
00000300: a643 853d a544 babd 511a 94bc 410e 5e39
00000310: e238 53bd fd5f d1bc 3bd1 8abc b712 033e
00000320: ae41 9f3d 96bc 24bd 8c3a 3abd 13f5 df3c
00000330: 3dc4 43bd af2b 9f3d b6ac 26bc ac58 e3bc
00000340: 2c1d 303c 0809 2abd 6909 223c 14d4 ba3d
00000350: 16e7 ee3d 7ee8 c83c a08b 6bbd 479c ba3d
00000360: d661 5a3d 38a5 ac3c 4f6d 8fbd 57c7 5cbd
00000370: 3fc4 afbd 4f8f 5fbd 0183 5439 316e 093d
00000380: 12e3 d33c ac78 b33d ef2e adbd 6879 ef3d
00000390: bab6 bb3c 9c69 29be 211c da3c 9f29 cb3d
000003a0: b5ca f7bd db1d e93d 2083 0dbe 06f0 1e3e
000003b0: 23c5 3cbd 5b02 c33c d2af 263e b5ca 94bc
000003c0: 3c91 46bd 35cd 2d3e 6e16 3fbc c791 5d3d
000003d0: 1f02 84bc 6c39 ad39 0524 7c3a d44c 76bc
000003e0: 806e 8a3d e0cf 813d 8ce8 c03c ba27 d539
000003f0: d6cb 1dbd a058 7dba d334 693d c610 913d

conv1_2.0.bias f4 [16]
-0.0018484445 -0.06749299 0.033277676 0.07814463 -0.040777016 0.009051343 -0.03445354 0.052056137
0.011789257 0.080725655 0.06777267 -0.047945157 0.073732264 0.09968964 0.026454197 -0.020499716
00000000: 8147 f2ba c439 8abd 2c4e 083d 4b0a a03d
00000010: cd05 27bd 164c 143c 281f 0dbd d138 553d
00000020: ba27 413c 7e53 a53d 66cc 8a3d 2462 44bd
00000030: f100 973d 152a cc3d 79b6 d83c 05ef a7bc

conv2_1.0.weight f4 [32, 16, 3, 3]
0.07310296 0.11406061 0.081701726 0.057736322 0.1024203 0.08364305 0.02630908 0.11803535
0.0011290023 -0.040943466 0.08768296 0.12303895 -0.07973881 0.054590955 -0.08682128 0.030132053
-0.0060615926 -0.09791886 0.033720534 0.09587591 0.16154294 0.04387125 0.13187687 0.07306656
0.11588207 0.14112888 0.0021094442 0.059660487 -0.029039567 -0.028529886 0.0033558086 0.063015684
0.041613907 -0.05050579 -0.012152431 0.055250384 -0.04433774 -0.026194096 -0.059289016 0.06909542
0.042198133 0.10016925 0.054796692 -0.014999034 0.03017083 -0.008525578 0.018755946 0.10132611
-0.0029177242 0.014428363 0.01145294 -0.08639215 -0.0894516 -0.04586819 0.09508479 0.15376663
0.05687651 -0.028347291 0.09226933 -0.031540494 -0.0410595 0.02091181 0.018854203 -0.007937475
0.010545716 -0.0037309492 -0.0757718 -0.07183689 0.009990459 -0.04214921 -0.09714819 -0.10033252
-0.045484997 0.005672446 0.029191464 0.035056405 0.06846394 -0.0022301977 -0.11235042 -0.082950436
0.00049801 0.020974098 -0.08407799 -0.04310256 -0.05829072 -0.047403973 -0.0011944529 0.100759305
0.041472647 -0.0043350523 -0.061683696 0.09392119 0.045500938 0.071780175 0.02319302 -0.02879962
0.031506963 -0.02450963 -0.054882254 0.0717457 -0.035057876 0.085995875 -0.079191096 -0.09809601
-0.005399338 0.03773448 0.0640784 -0.010379312 0.09258808 0.040907916 0.03822576 0.07826415
0.021750819 0.014736542 0.09744775 -0.018215338 0.037362408 -0.056501597 -0.0028395657 -0.018808298
-0.04681498 -0.0023585465 0.046687588 -0.054405846 0.08973216 0.013524083 0.0789794 0.026819712
0.0785622 -0.09057507 0.055894963 0.06782646 -0.024796247 -0.038822673 0.034380514 -0.050053593
0.06910277 -0.059914786 -0.023675336 -0.10750733 -0.06704735 -0.122374736 2.8876926e-05 0.02607277
-0.052463472 0.022982802 0.034991585 -0.008505104 0.039138645 -0.0772968 0.08399313 -0.04385609
0.05891598 0.07250462 -0.018916905 0.07283969 0.028597642 0.08898581 0.014346804 -0.103434764
-0.062808305 -0.028043374 0.10098618 0.11744578 -0.048667964 0.039991695 0.087411575 -0.06748237
-0.03036885 0.06269281 0.043323394 -0.086384356 0.08415888 -0.03863559 0.013486766 0.063365564
0.066015914 0.014207338 0.052811082 -0.023648845 0.018528359 -0.032295946 -0.05673942 0.12961152
-0.035925172 -0.07784375 0.010665186 0.08183729 -0.09001339 -0.024067743 0.07318678 0.10481038
-0.05830262 -0.022694986 0.06135945 -0.104157 0.020676265 0.029429207 0.101492845 -0.011724265
0.047926452 -0.048932243 0.027021235 0.0028053378 0.057117987 -0.051568143 -0.015342552 -0.0885341
0.025616145 -0.040945653 0.0325769 -0.025977919 0.074259676 -0.0990451 -0.030826826 0.03819214
-0.017290832 -0.05975767 0.10520329 -0.032076843 -0.052498616 -0.045218103 -0.0757667 -0.034509007
0.09081473 0.06802106 -0.001181905 -0.020463685 0.028024241 -0.0636661 0.04136219 0.033142418
-0.0031210566 -0.005482313 0.05859119 -0.06509375 -0.022052089 -0.03708031 0.06827722 -0.04593914
-0.018535957 0.030292472 -5.901408e-05 -0.03999546 0.09011192 -0.039566636 -0.08253072 0.024764048
0.017609056 -0.091560744 -0.047502346 -0.0066652927 -0.04031848 -0.025503738 -0.065821715 0.015497674
00000000: 01b7 953d 9c98 e93d 3c53 a73d ec7c 6c3d
00000010: bcc1 d13d 0c4d ab3d 2486 d73c 85bc f13d
00000020: 08fb 933a 56b4 27bd 2093 b33d d8fb fb3d
00000030: 1a4e a3bd c49a 5f3d 5bcf b1bd 7fd7 f63c
00000040: 53a0 c6bb af89 c8bd 8b1e 0a3d 975a c43d
00000050: 836b 253e 57b2 333d bb0a 073e eca3 953d
00000060: 9453 ed3d 1784 103e 9a3e 0a3b 8e5e 743d
00000070: 63e4 edbc 82b7 e9bc 20ed 5b3b 5e0e 813d
00000080: 5873 2a3d 29df 4ebd fd1a 47bc 3a4e 623d
00000090: 7d9b 35bd 0095 d6bc 0ad9 72bd e681 8d3d
000000a0: f3d7 2c3d 8925 cd3d 7f72 603d 82be 75bc
000000b0: d128 f73c deae 0bbc 12a6 993c 1084 cf3d
000000c0: 4a37 3fbb f164 6c3c 1da5 3b3c 5eee b0bd
000000d0: 6732 b7bd 48e0 3bbd d0bb c23d 0075 1d3e
000000e0: 58f7 683d 9438 e8bc b4f7 bc3d 9b30 01bd
000000f0: 022e 28bd 3f4f ab3c 2174 9a3c 2f0c 02bc
00000100: f0c7 2c3c f182 74bb 3f2e 9bbd 381f 93bd
00000110: 06af 233c a6a4 2cbd a1f5 c6bd 237b cdbd
00000120: 7a4e 3abd eddf b93b f022 ef3c 4e97 0f3d
00000130: d236 8c3d 8228 12bb fa17 e6bd ebe1 a9bd
00000140: e38c 023a dfd1 ab3c 1531 acbd 4f8c 30bd
00000150: 40c2 6ebd ab2a 42bd 308f 9cba e55a ce3d
00000160: 39df 293d 0e0d 8ebb 0ba8 7cbd c159 c03d
00000170: 315f 3a3d 7c01 933d 4aff bd3c 2eed ebbc
00000180: 720d 013d 6bc8 c8bc 37cc 60bd 69ef 923d
00000190: d998 0fbd 9b1e b03d f12e a2bd 90e6 c8bd
000001a0: eeec b0bb 788f 1a3d 893b 833d fd0d 2abc
000001b0: d29e bd3d 0f8f 273d 9d92 1c3d f448 a03d
000001c0: c62e b23c 8971 713c b092 c73d 5538 95bc
000001d0: 5309 193d 386e 67bd 0218 3abb dc13 9abc
000001e0: 11c1 3fbd d891 1abb 7c3b 3f3d aad8 5ebd
000001f0: 7fc5 b73d 1e94 5d3c f4bf a13d 03b5 db3c
00000200: 38e5 a03d 6c7f b9bd 1ef2 643d 99e8 8a3d
00000210: 8021 cbbc 8604 1fbd 95d2 0c3d ff04 4dbd
00000220: c185 8d3d 3569 75bd c7f2 c1bc ce2c dcbd
00000230: 1f50 89bd 9b9f fabd ba3c f237 9096 d53c
00000240: f0e3 56bd 6e46 bc3c 5653 0f3d fe58 0bbc
00000250: d84f 203d c94d 9ebd 9704 ac3d 72a2 33bd
00000260: e251 713d 4d7d 943d a0f7 9abc fa2c 953d
00000270: 9a45 ea3c 313e b63d db0e 6b3c 9bd5 d3bd
00000280: a4a1 80bd 38bb e5bc d8d1 ce3d 6a87 f03d
00000290: 0f58 47bd 55ce 233d d704 b33d 3234 8abd
000002a0: 18c8 f8bc 1765 803d df73 313d 48ea b0bd
000002b0: 7e5b ac3d 5a40 1ebd 99f7 5c3c cec5 813d
000002c0: 5a33 873d e5c5 683c 6f50 583d 39bb c1bc
000002d0: c9c8 973c c148 04bd 9867 68bd e2b8 043e
000002e0: 4626 13bd 8b6c 9fbd 08bd 2e3c 4f9a a73d
000002f0: f158 b8bd b729 c5bc f3e2 953d d3a6 d63d
00000300: bace 6ebd d6ea b9bc 0c54 7b3d 4450 d5bd
00000310: 4561 a93c 8515 f13c 7bdb cf3d 2217 40bc
00000320: 874e 443d 2d6d 48bd a35b dd3c c2d9 373b
00000330: 8df4 693d 1e39 53bd 545f 7bbc 5e51 b5bd
00000340: f3d8 d13c a1b6 27bd 5b6f 053d a5cf d4bc
00000350: 7515 983d 28d8 cabd 8a88 fcbc 5d6f 1c3d
00000360: 81a5 8dbc 75c4 74bd d374 d73d 0263 03bd
00000370: ca08 57bd 9e36 39bd 922b 9bbd 5159 0dbd
00000380: 13fd b93d a04e 8b3d 27ea 9aba 75a3 a7bc
00000390: 1893 e53c 5f63 82bd 666b 293d 58c0 073d
000003a0: a48a 4cbb faa4 b3bb 51fd 6f3d df4f 85bd
000003b0: 95a6 b4bc 86e1 17bd edd4 8b3d ae2a 3cbd
000003c0: b8d8 97bc eb27 f83c e385 77b8 48d2 23bd
000003d0: 998c b83d a010 22bd de05 a9bd f9dd ca3c
000003e0: de40 903c 3384 bbbd d291 42bd 8768 dabb
000003f0: fe24 25bd 37ed d0bc 89cd 86bd f5e9 7d3c

conv2_1.0.bias f4 [32]
-0.013640272 -0.076147415 0.071261056 -0.080712155 0.027864274 0.06297078 -0.0072828913 -0.015365213
-0.030675884 0.039310135 -0.019245118 -0.020505155 -0.021254407 -0.009028565 -0.08177897 0.06407511
-0.059848666 -0.06599593 -0.076078564 -0.090780444 -0.021252288 0.0474423 0.0466368 0.02125643
-0.027891211 -0.07995286 -0.00498061 0.08532838 -0.0762648 -0.050355587 -0.018584915 0.023093326
00000000: 737b 5fbc 2df3 9bbd 51f1 913d 6a4c a5bd
00000010: 9e43 e43c d3f6 803d 52a5 eebb 60be 7bbc
00000020: fe4b fbbc aa03 213d f0a7 9dbc 6dfa a7bc
00000030: b91d aebc 8cec 13bc bc7b a7bd d039 833d
00000040: e023 75bd e028 87bd 14cf 9bbd 19eb b9bd
00000050: 4719 aebc db52 423d 3b06 3f3d f721 ae3c
00000060: 1c7c e4bc 53be a3bd 6334 a3bb a5c0 ae3d
00000070: b830 9cbd a941 4ebd 643f 98bc 372e bd3c

conv2_2.0.weight f4 [32, 32, 3, 3]
-0.015916573 -0.03975515 -0.042179126 -0.03400464 0.020380873 0.0146155115 -0.004372163 0.022818994
0.047584146 -0.0526837 -0.045838308 0.03453144 -0.049179226 -0.041660134 0.025510961 -0.027914407
0.0024388272 -0.006514565 -0.010866566 -0.067257 0.082925335 -0.048185762 -0.05776605 0.02683109
-0.011552237 0.058095854 0.05140012 0.05248753 -0.03348294 -0.053188834 -0.03629388 -0.06992311
0.013124544 0.029383633 0.033050254 -0.012782665 0.012158922 -0.06604929 -0.010718868 0.043619856
-0.05246891 -0.02207971 -0.0047618756 0.003917582 0.07410565 0.019269718 -0.025853148 -0.0038394264
-0.07879047 -0.0013853001 -0.012195741 -0.054643657 -0.04536141 -0.014715194 0.004891143 0.05106801
-0.051948722 -0.0006188472 0.050801843 -0.064111516 0.062077593 -0.040204167 -0.024245162 0.01875877
-0.085069165 0.050047167 -0.055284485 -0.07983789 -0.035833213 0.020485885 -0.031256054 0.06913445
0.034500472 -0.07754786 -0.07949018 -0.015023017 -0.036049355 0.008410932 -0.03132933 -0.09916636
0.011970486 0.024338493 0.017170211 -0.024845485 -0.00091805286 -0.027695682 0.015931534 0.02116218
0.005414401 -0.029079666 0.050135233 -0.057969104 -0.06653513 -0.022645554 0.016738934 -0.031918064
-0.03807962 -0.005540831 0.046814665 -0.007513621 -0.022511644 -0.048412666 -0.018996233 0.018295366
-0.043240048 0.018913293 0.05383612 -0.088786356 0.07708676 0.0064748237 0.014444638 0.013314053
0.054518677 -0.008111047 0.0642518 0.043690942 -0.0135238925 0.028700132 -0.03598253 -0.043729067
-0.04471203 -0.04264383 -0.014424986 -1.5528225e-05 0.016667355 0.084315754 -0.039294627 0.04491657
-0.053599216 0.04252522 0.034597866 -0.070329495 0.019723732 0.026174992 0.000774789 -0.046776965
0.0017506861 0.084946744 -0.08821946 0.023566565 -0.024466578 -0.037127472 -0.018653119 0.03415317
0.060944505 0.041451212 -0.12369599 0.018885573 0.07141925 -0.011197808 0.013692059 0.0016177961
0.007468696 -0.0061005317 -0.0007202289 -0.021333635 0.039560847 -0.048735667 -0.010736613 -0.006059713
0.062109057 -0.007679087 -0.021869197 -0.055172756 -0.05359821 -0.05660506 -0.0686129 0.0098698065
0.022139642 -0.056414396 0.022961546 0.023331365 0.12367121 -0.023873877 0.0050251083 0.047343254
0.015193688 0.02184076 0.05212199 0.07605741 0.006484743 -0.049113676 0.04089398 -0.071753666
-0.04669388 -0.024406511 0.009207883 0.033608455 -0.0006023977 0.00445416 0.056885928 -0.021942705
0.028651295 0.046630133 -0.0038097699 -0.0014835137 0.03868765 -0.0064505055 -0.06317387 -0.0443708
0.050646227 0.031771027 0.014051682 -0.008015962 0.025884325 0.016736222 0.056548443 -0.021983694
-0.06561048 0.0121445935 -0.1007077 0.011391681 -0.014121814 -0.06240805 -0.031701643 0.10813484
-0.045499735 0.066150665 0.07666879 -0.11361664 0.05145644 0.071839824 -0.025256077 -0.040049132
-0.0014054734 -0.04785341 0.046841197 -0.0765317 0.020185707 0.026312565 0.002697133 0.03241333
0.050509598 0.072305396 -0.0021854308 -0.081775054 -0.0004907544 0.05186952 -0.014136529 0.017564844
0.022754515 -0.05102286 -0.0449108 0.05628816 0.12135234 0.06356313 0.08267674 0.13594303
0.0019265822 0.046940614 0.067971386 -0.046433758 0.08015395 -0.043197777 -0.08798014 0.033034902
00000000: 7963 82bc 4cd6 22bd 05c4 2cbd 7348 0bbd
00000010: caf5 a63c e675 6f3c 5d44 8fbb e6ee ba3c
00000020: 98e7 423d ddca 57bd f3c0 3bbd d770 0d3d
00000030: 2870 49bd d1a3 2abd 5dfc d03c c1ac e4bc
00000040: bbd4 1f3b 2278 d5bb ae09 32bc 0abe 89bd
00000050: c2d4 a93d 6f5e 45bd 189c 6cbd e0cc db3c
00000060: 9845 3dbc ebf5 6d3d ef88 523d 2afd 563d
00000070: 6825 09bd 89dc 59bd e4a8 14bd d933 8fbd
00000080: 5408 573c f2b5 f03c b45f 073d 626e 51bc
00000090: 3736 473c da44 87bd 319e 2fbc bcaa 323d
000000a0: a4e9 56bd 82e0 b4bc 8209 9cbb 0f5f 803b
000000b0: b4c4 973d 87db 9d3c fbc9 d3bc e39e 7bbb
000000c0: e65c a1bd f592 b5ba a5d0 47bc 07d2 5fbd
000000d0: e3cc 39bd ff17 71bc e245 a03b b12c 513d
000000e0: 2fc8 54bd 223a 22ba 9815 503d e64c 83bd
000000f0: 1345 7e3d 20ad 24bd ca9d c6bc feab 993c
00000100: be38 aebd 42fe 4c3d fc71 62bd 0c82 a3bd
00000110: d9c5 12bd 04d2 a73c 5906 00bd 5d96 8d3d
00000120: 5e50 0d3d 6ad1 9ebd bfcb a2bd 1a23 76bc
00000130: 7da8 13bd 01ce 093c 2f53 00bd bc17 cbbd
00000140: db1f 443c 8561 c73c 8ba8 8c3c c288 cbbc
00000150: 7ca9 70ba 0ee2 e2bc d982 823c 4f5c ad3c
00000160: 4a6b b13b 7b38 eebc 9a5a 4d3d 0371 6dbd
00000170: 9243 88bd 2b83 b9bc 1720 893c 84bc 02bd
00000180: 60f9 1bbd dc8f b5bb bcc0 3f3d d234 f6bb
00000190: 576a b8bc 5c4c 46bd fd9d 9bbc 2ae0 953c
000001a0: 7a1c 31bd 0df0 9a3c 4383 5c3d 9fd5 b5bd
000001b0: aadf 9d3d c22a d43b 34a9 6c3c 3023 5a3c
000001c0: fa4e 5f3d 32e4 04bc 7396 833d 46f5 323d
000001d0: 5193 5dbc 8a1c eb3c 6b62 13bd 401d 33bd
000001e0: f623 37bd 4cab 2ebd c756 6cbc 9c42 82b7
000001f0: fa89 883c bdad ac3d 67f3 20bd 70fa 373d
00000200: da8a 5bbd ed2e 2e3d 7eb6 0d3d e908 90bd
00000210: aa93 a13c f06c d63c 361b 4b3a 3499 3fbd
00000220: 4777 e53a 8ff8 ad3d 67ac b4bd ab0e c13c
00000230: 226e c8bc fa12 18bd 6dce 98bc 32e4 0b3d
00000240: f2a0 793d bfc8 293d 5354 fdbd ebb5 9a3c
00000250: 4144 923d 0377 37bc a854 603c 3b0c d43a
00000260: f7bb f43b f8e6 c7bb becd 3cba e0c3 aebc
00000270: 8e0a 223d 0d9f 47bd 9ee8 2fbc 8f90 c6bb
00000280: 1166 7e3d daa0 fbbb 0827 b3bc d4fc 61bd
00000290: cc89 5bbd b5da 67bd ec84 8cbd f8b4 213c
000002a0: 325e b53c c812 67bd da19 bc3c 6b21 bf3c
000002b0: 5547 fd3d 2693 c3bc aaa9 a43b 00eb 413d
000002c0: f2ee 783c 65eb b23c de7d 553d fdc3 9b3d
000002d0: f87d d43b 6c2b 49bd 7280 273d 96f3 92bd
000002e0: 1542 3fbd 2af0 c7bc a9dc 163c 05a9 093d
000002f0: 3aea 1dba 34f4 913b 3801 693d 30c1 b3bc
00000300: 1fb6 ea3c 3dff 3e3d 55ad 79bb 7672 c2ba
00000310: f176 1e3d c35e d3bb 4d61 81bd 28be 35bd
00000320: 6b72 4f3d 5622 023d 0739 663c 6255 03bc
00000330: 5d0b d43c 671a 893c 579f 673d 2617 b4bc
00000340: ca5e 86bd 1efa 463c d73f cebd 2ca4 3a3c
00000350: 2e5f 67bc 959f 7fbd 95d9 01bd cd75 dd3d
00000360: ee5d 3abd 007a 873d 8704 9d3d d7af e8bd
00000370: fdc3 523d c220 933d d5e5 cebc 8f0a 24bd
00000380: dd37 b8ba f001 44bd 8edc 3f3d a7bc 9cbd
00000390: 7f5c a53c 738d d73c 62c2 303b d7c3 043d
000003a0: 27e3 4e3d da14 943d 7239 0fbb ae79 a7bd
000003b0: f8a5 00ba 2275 543d e69c 67bc 26e4 8f3c
000003c0: ad67 ba3c 59fd 50bd 63f4 37bd 6a8e 663d
000003d0: 9387 f83d 632d 823d 6c52 a93d a634 0b3e
000003e0: 5f85 fc3a cd44 403d 9534 8b3d 5331 3ebd
000003f0: c127 a43d 27f0 30bd ee2e b4bd 9b4f 073d

conv2_2.0.bias f4 [32]
0.04783809 -0.07719827 0.047715135 -0.07751219 0.0022638643 -0.0010971494 0.008363665 -0.045328163
-0.06577043 0.0022097705 0.040835343 -0.052924965 -0.031408515 -0.055200938 0.026633216 -0.020637847
0.03812694 -0.03309793 0.029922845 0.035241935 0.009286415 -0.087225124 -0.0030606193 -0.003083708
0.014729291 -0.006696741 -0.036017947 0.04092617 0.011314638 -0.05624012 -0.03587046 -0.04756288
00000000: e0f1 433d 201a 9ebd f270 433d b6be 9ebd
00000010: 575d 143b 3ace 8fba c107 093c 06aa 39bd
00000020: a6b2 86bd ccd1 103b f642 273d d9c7 58bd
00000030: 37a6 00bd 611a 62bd e72d da3c b410 a9bc
00000040: ff2a 1c3d b291 07bd c120 f53c d959 103d
00000050: 0c26 183c 16a3 b2bd ac94 48bb 0918 4abb
00000060: 2053 713c 5670 dbbb 8e87 13bd 33a2 273d
00000070: 0861 393c 0a5c 66bd e7ec 12bd 4bd1 42bd

fc1.weight f4 [128, 800]
0.01159868 0.008574816 -0.069415085 -0.09735481 0.25265658 -0.10791499 -0.056033053 -0.15017359
-0.16589569 -0.19369581 -0.079118215 -0.034414187 -0.0421539 -0.053043 0.048506238 0.071170315
0.073583595 -0.025098698 0.07778972 0.002192805 0.21470363 -0.025841152 -0.12613869 0.03965608
-0.041513152 -0.01394217 -0.03292246 0.042054094 0.005848198 0.025782706 0.16510998 -0.057968166
-0.013767761 0.0077461014 0.082732715 0.07414504 0.113486305 -0.0973851 0.109594524 0.00921516
0.09996522 0.059046328 -0.075723715 -0.08673518 -0.06329634 -0.07328696 0.07977577 -0.0369371
-0.02411541 -0.052001692 0.07537615 -0.0028356765 -0.014561812 -0.14677013 0.056046456 -0.08037216
-0.16743208 -0.0049899505 -0.16145508 0.17734565 -0.028041555 -0.0036800497 0.024777824 0.0002169984
-0.004873866 -0.0058358074 -0.009065966 0.0551228 -3.2021555e-05 -0.0036989823 -0.012311373 -0.0064349785
0.019387595 0.0020320755 -0.1284877 -0.03246845 -0.08792925 -0.052644208 -0.034328606 -0.055235967
0.03975555 -0.04180664 0.131536 -0.051074017 0.0019166874 -0.063132465 -0.17014003 0.01601052
0.11357872 -0.11594593 -0.011209136 0.01178919 -0.16537584 -0.030615306 0.04033658 -0.013703961
0.062895454 -0.0063666673 0.012603429 -0.051709283 -0.012794452 -0.17906003 0.010984367 -0.106281936
0.06908326 0.01888906 -0.023483781 0.109393775 -0.0142920995 0.079025656 -0.091857985 -0.06274954
0.049766153 -0.0027822463 -0.021445889 -0.014149683 -0.015219217 0.10273695 -0.008309053 -0.033142433
0.0031713732 0.011259362 -0.05885689 -0.04322731 0.04598272 0.11007484 -0.041310515 -0.0066485014
-0.14378305 0.1428053 -0.10240578 -0.07732124 -0.051481158 -0.05685415 -0.04389615 -0.041367073
0.043216314 -0.018892167 -0.025262753 0.2755975 -0.18741132 -0.010189629 -0.012029812 -0.039415095
0.046603836 0.0012536144 -0.14308284 0.017459113 -0.028370032 0.007817612 -0.13884573 0.062459517
0.080984086 0.022498373 -0.056736715 0.102635264 -0.060164046 -0.019523846 -0.14704391 -0.04574998
-0.075504154 -0.05100043 -0.21921356 0.10987144 0.04824153 -0.069010414 0.033957653 -0.19319448
-0.068052776 0.11083932 0.08799127 0.12927058 0.110136814 0.015262299 0.017824668 -0.0031417357
-0.09425688 0.15441655 -0.06776875 0.015469763 -0.003643431 -0.05200261 -0.034688275 -0.030339856
-0.095577724 0.06602622 -0.09223926 -0.1359633 0.14782368 -0.020710893 -0.0149906175 -0.13017319
-0.1668789 -0.064622894 -0.0331572 0.090155855 0.18202303 -0.008587599 -0.040375166 0.17546739
0.001979434 0.037208132 0.0004977096 -0.006290163 0.0031720693 -0.009811128 -0.009151744 -0.00021362287
0.0026061758 -0.008564536 -0.027468905 -0.007922597 9.414637e-05 -0.012998035 0.03585653 -0.013487772
-0.008787287 -0.0052148453 -0.021618627 -0.0074006217 -0.14575589 0.030802973 -0.055067904 -0.00907593
-0.015232322 -0.15097092 -0.117958926 -0.02609158 0.011311016 -0.046587825 -0.046408057 -0.041548587
-0.03402811 0.03582873 -0.14729425 0.035102557 -0.08784142 0.054733988 -0.09018129 -0.027989851
0.07134407 0.089242354 0.019592172 -0.022491526 0.013502516 0.0824246 -0.10867021 0.01048428
0.026753401 0.013221059 -0.14004117 0.13842423 0.0011478567 0.14177966 -0.012866067 -0.08575498
00000000: 6408 3e3c 637d 0c3c 7f29 8ebd f561 c7bd
00000010: 345c 813e 8902 ddbd ea82 65bd 1bc7 19be
00000020: 8fe0 29be 3258 46be bb08 a2bd e4f5 0cbd
00000030: 91a9 2cbd 9e43 59bd 7aae 463d bec1 913d
00000040: ffb2 963d c99b cdbc 3750 9f3d 2ab5 0f3b
00000050: 45db 5b3e d3b0 d3bc 802a 01be 6a6e 223d
00000060: b209 2abd b36d 64bc b4d9 06bd ea40 2c3d
00000070: 3ea2 bf3b 4136 d33c 9712 293e 0770 6dbd
00000080: 2d92 61bc 02d3 fd3b c56f a93d 5bd9 973d
00000090: 826b e83d d771 c7bd 1873 e03d 2ffb 163c
000000a0: 91ba cc3d 90da 713d 0915 9bbd 37a2 b1bd
000000b0: 83a1 81bd 7917 96bd 7b61 a33d 5b4b 17bd
000000c0: ae8d c5bc baff 54bd d05e 9a3d c2d6 39bb
000000d0: ab94 6ebc e94a 16be f890 653d 299a a4bd
000000e0: 5173 2bbe bd82 a3bb 7b54 25be 199a 353e
000000f0: 67b7 e5bc fd2c 71bb ddfa ca3c 118a 6339
00000100: f4b4 9fbb 4d3a bfbb 6b89 14bc 72c8 613d
00000110: e24e 06b8 a06a 72bb a4b5 49bc 83dc d2bb
00000120: bcd2 9e3c 922c 053b 4892 03be a3fd 04bd
00000130: 4014 b4bd 74a1 57bd 279c 0cbd 1c3f 62bd
00000140: b7d6 223d 703d 2bbd 60b1 063e fd32 51bd
00000150: 5b39 fb3a 984b 81bd 3039 2ebe 7e28 833c
00000160: f69b e83d 0f75 edbd 86a6 37bc 7227 413c
00000170: 4958 29be f3cc fabc f837 253d 9486 60bc
00000180: 55cf 803d 7a9f d0bb 9d7e 4e3c 1dcd 53bd
00000190: d29f 51bc 835b 37be c6f7 333c 58aa d9bd
000001a0: 867b 8d3d 3bbd 9a3c 0f61 c0bc d809 e03d
000001b0: 6929 6abc 34d8 a13d 0a20 bcbd d582 80bd
000001c0: 98d7 4b3d 5956 36bb 4aaf afbc 12d4 67bc
000001d0: 065a 79bc c067 d23d b222 08bc 5cc0 07bd
000001e0: d0d6 4f3b 3079 383c ec13 71bd 1f0f 31bd
000001f0: 6058 3c3d eb6e e13d 3735 29bd acdb d9bb
00000200: dd3b 13be 8d3b 123e 1fba d1bd 995a 9ebd
00000210: e8dd 52bd e6df 68bd 73cc 33bd 8570 29bd
00000220: 9703 313d bfc3 9abc d5f3 cebc 1e1b 8d3e
00000230: c1e8 3fbe 67f2 26bc b018 45bc b971 21bd
00000240: aae3 3e3d 5250 a43a 4f84 12be 6a06 8f3c
00000250: 4568 e8bc 7115 003c 932d 0ebe 8dd5 7f3d
00000260: fcda a53d 824e b83c c264 68bd 7032 d23d
00000270: 936e 76bd 79f0 9fbc ae92 16be 5564 3bbd
00000280: eca1 9abd d4e5 50bd 8579 60be 4704 e13d
00000290: e998 453d 5555 8dbd 2e17 0b3d c6d4 45be
000002a0: 415f 8bbd baff e23d c434 b43d 825f 043e
000002b0: 698f e13d b90e 7a3c 0a05 923c 94e5 4dbb
000002c0: c009 c1bd 5f1f 1e3e 58ca 8abd e474 7d3c
000002d0: a1c6 6ebb b000 55bd 4b15 0ebd 4a8b f8bc
000002e0: 41be c3bd c138 873d f0e7 bcbd f739 0bbe
000002f0: 175f 173e e4a9 a9bc 359b 75bc 1f4c 05be
00000300: 4de2 2abe 0259 84bd d8cf 07bd a2a3 b83d
00000310: 3f64 3a3e 00b3 0cbc 6e60 25bd b9ad 333e
00000320: 64b9 013b 8e67 183d ba78 023a b61d cebb
00000330: 7ee2 4f3b dabe 20bc 32f1 15bc f4ff 5fb9
00000340: 60cc 2a3b 4552 0cbc 7806 e1bc c8cd 01bc
00000350: 7370 c538 b6f5 54bc 4cde 123d d1fb 5cbc
00000360: 8ef8 0fbc 4be1 aabb 8c19 b1bc ea80 f2bb
00000370: 0841 15be 8456 fc3c e28e 61bd 36b3 14bc
00000380: fd90 79bc 1f98 1abe 7394 f1bd 02be d5bc
00000390: d751 393c e0d2 3ebd 6016 3ebd da2e 2abd
000003a0: 0f61 0bbd 25c1 123d 4ed4 16be b3c7 0f3d
000003b0: 34e6 b3bd bf30 603d f8b0 b8bd f94a e5bc
000003c0: d71c 923d b2c4 b63d c37f a03c 2640 b8bc
000003d0: a839 5d3c 3bce a83d 7d8e debd 42c6 2b3c
000003e0: f329 db3c 249d 583c f466 0fbe 15bf 0d3e
000003f0: ae73 963a b02e 113e 32cc 52bc 4fa0 afbd

fc1.bias f4 [128]
-0.031777088 -0.040101018 -0.012309721 0.0017181291 0.0029821424 0.0290521 0.012572673 0.0068260864
-0.008506477 -0.0032423735 0.002962587 0.009620521 0.02937541 0.014199563 0.00087486394 -0.03542464
-0.011495703 0.02446118 0.033379894 -0.02304362 -1.4348902e-05 0.013663959 0.0076934076 -0.011659758
-0.008438152 -0.009480575 -0.010577222 0.01707381 -0.033972505 -0.049904864 0.021601262 0.016260553
0.039405975 0.026569095 0.005357867 0.023272665 -0.0017740844 -0.018814368 0.0061950143 0.0025409309
0.0031251549 -0.025191784 -0.029091002 -0.007245109 0.031609315 -0.0031620162 -0.024383467 0.02217754
0.0057204645 0.020420538 0.0035587887 -0.026867198 0.020858955 0.0109798545 -0.006845324 -0.006377745
-0.012471123 -0.047939528 -0.02076596 0.013824114 -0.008464627 -0.03135441 -0.0115604205 0.028693158
-0.022563305 0.009793767 0.030412171 -0.02748479 0.03015758 0.009251124 0.033848125 -0.0065151323
-0.032952283 -0.023302617 -0.03850396 0.023639442 0.028313484 -0.0037636084 -0.03319746 -0.023028888
0.031886414 -0.006762935 -0.01371498 0.0025948936 0.02745562 -0.033888746 0.03916306 -0.010463846
0.0040338137 0.001759815 0.007528218 0.0010863564 0.0034048958 0.005514632 -0.019468583 -0.013275367
-0.03419354 -0.018880885 0.012481064 -0.03377406 0.03457379 -0.005969684 -0.007334637 -0.040515278
-0.002466839 0.041319292 0.0044892463 -0.02279711 0.04103568 0.04160986 -0.043721724 -0.015023986
-0.034321267 -0.0061451215 -0.020783052 0.01724282 -0.0074030715 -0.04142693 -0.028264109 0.018009765
-0.04991558 0.029962432 0.020892788 -0.021418674 0.00030279256 -0.0018552858 0.02873158 0.021481298
00000000: b128 02bd f740 24bd b6ae 49bc d932 e13a
00000010: 0c70 433b abfe ed3c 9dfd 4d3c 5dad df3b
00000020: c05e 0bbc 007e 54bb f627 423b 649f 1d3c
00000030: b3a4 f03c 49a5 683c 2057 653a 6d19 11bd
00000040: 7958 3cbc d062 c83c 5bb9 083d f9c5 bcbc
00000050: 11bc 70b7 ccde 5f3c fb18 fc3b 9208 3fbc
00000060: 2d40 0abc 6a54 1bbc 164c 2dbc 60de 8b3c
00000070: c126 0bbd 0b69 4cbd 21f5 b03c da34 853c
00000080: 2968 213d 6ea7 d93c 0c91 af3b 51a6 be3c
00000090: 6588 e8ba 9720 9abc 8cff ca3b bf85 263b
000000a0: 66cf 4c3b 005f cebc 4150 eebc 6168 edbb
000000b0: c578 013d d439 4fbb d6bf c7bc acad b53c
000000c0: bc72 bb3b f948 a73c 913a 693b 9918 dcbc
000000d0: 66e0 aa3c d9e4 333c bd4e e0bb 67fc d0bb
000000e0: ae53 4cbc 3d5c 44bd 601d aabc 897e 623c
000000f0: 38af 0abc 7b6d 00bd eb67 3dbc ea0d eb3c
00000100: aed6 b8bc 0976 203c f222 f93c c827 e1bc
00000110: 070d f73c 0792 173c 55a4 0a3d e47c d5bb
00000120: f9f8 06bd 21e5 bebc 54b6 1dbd 81a7 c13c
00000130: aef1 e73c dfa6 76bb 0ffa 07bd 14a7 bcbc
00000140: 549b 023d 9c9b ddbb ccb4 60bc 170f 2a3b
00000150: 9cea e03c edce 0abd 7269 203d 8d70 2bbc
00000160: 152e 843b 98a9 e63a 45af f63b 1264 8e3a
00000170: ac24 5f3b 16b4 b43b 947c 9fbc ed80 59bc
00000180: 870e 0cbd 16ac 9abc 607d 4c3c ab56 0abd
00000190: 3f9d 0d3d 579d c3bb 6557 f0bb 59f3 25bd
000001a0: b1aa 21bb 6b3e 293d 871a 933b 01c1 babc
000001b0: 0715 283d 1a6f 2a3d 8d15 33bd 2a27 76bc
000001c0: 7594 0cbd 045d c9bb 3841 aabc d040 8d3c
000001d0: 7795 f2bb 49af 29bd 228a e7bc 3789 933c
000001e0: 4774 4cbd c673 f53c 5a27 ab3c 3776 afbc
000001f0: 21c0 9e39 102d f3ba 7e5e eb3c 8cf9 af3c

fc2.weight f4 [11, 128]
0.12215456 0.050985944 0.12628658 0.086038284 0.086335674 0.12154534 -0.15810704 -0.013127308
0.00013839833 0.014078943 -0.033498827 -0.06493317 -0.22097161 -0.15148702 -0.011723724 0.010980588
-0.11345112 -0.015356713 -0.013376217 -0.13301714 0.027504005 0.21638381 -0.05266181 0.032287627
0.040029947 -0.046842273 0.12047655 0.123578504 0.15848833 -0.024096573 0.06055123 -0.043828737
0.08219727 0.14921981 0.093393646 0.0150762675 0.119721025 -0.07176074 0.1435282 0.2203026
0.19479981 0.25124186 0.032818362 0.03360957 0.07233049 -0.023947928 -0.02378257 -0.033157013
-0.074953206 -0.07464178 0.02288627 -0.06175767 -0.07106621 -0.009748033 0.008672285 -0.06526844
0.066013575 -0.0471321 0.022102192 -0.022829019 -0.114617474 0.02693513 0.14481194 -0.13910544
0.112880245 -0.045117125 0.024340756 0.012465984 -0.08473822 -0.005449017 0.017960563 0.16142234
-0.23711635 0.10068623 0.07933402 -0.05883951 0.0233164 0.05000218 -0.182924 -0.2295659
0.181377 0.013595134 -0.067672856 -0.28652433 0.20751134 -0.08129349 -0.042051148 -0.16581663
0.07855019 0.042881817 -0.04294238 -0.05290524 0.09915285 -0.10722035 -0.053356245 -0.071360365
-0.050943922 -0.013913451 -0.026786204 -0.17592077 0.16283125 0.20338228 -0.24317513 -0.1348917
-0.17721905 -0.1299117 0.00950051 -0.094396085 -0.019385757 0.065007485 -0.0854901 -0.13499555
0.020029746 0.102927774 -0.20823883 -0.1512179 0.0009784603 0.050386354 -0.3312562 0.07202607
0.05368358 0.013816358 -0.09380923 0.14700209 -0.016084367 0.015163319 0.040278338 -0.05085044
0.022867026 -0.27506 0.099000536 -0.018624064 -0.021053372 0.03096834 0.21517454 0.0452583
0.01291913 -0.041372582 0.009073858 -0.19046845 -0.121902205 -0.08090409 -0.063139275 0.06665227
-0.19484784 -0.14728147 -0.15127875 -0.095032535 -0.09587289 0.033010416 -0.046416488 0.16548452
-0.031503588 -0.009799067 -0.0752215 0.14930248 0.044541337 0.041577753 0.14328405 0.006175538
-0.0013793559 0.09453471 -0.022074727 -0.17458029 0.061480973 0.061927795 -0.048956804 0.085333124
-0.07409903 -0.010085902 0.082610674 0.15454297 0.064619586 -0.036484215 0.04918727 0.109590754
-0.043646317 -0.109592654 0.049944196 -0.06858279 -0.27492467 0.21431799 0.033207286 -0.12611698
-0.13248712 -0.027622642 0.11365048 -0.058099505 -0.0024001624 -0.16630735 -0.12486578 0.14658788
0.08780627 0.22792086 -0.04159094 0.102218226 0.16962308 -0.04435429 0.1553423 0.07095865
0.13286912 -0.04910211 -0.029338762 -0.052038223 -0.07425595 0.016199227 0.028924603 -0.01969583
-0.10606394 -0.014119614 0.0027809523 0.012391664 0.04782506 0.0019222879 0.060690798 -0.18082578
0.14272913 0.042556357 -0.026070582 -0.14817177 -0.079740666 -0.08516125 -0.09889679 0.08064558
-0.12609711 0.070611075 -0.13720033 0.025976637 0.11054638 -0.03543184 0.051628083 0.10674153
0.03913963 0.14632285 0.078950465 0.19092359 -0.07607882 0.15745817 -0.1615581 0.21467564
-0.09553747 0.118900456 0.076118715 -0.00781382 -1.675415e-23 -0.08767476 0.115603745 0.049517255
0.03083651 -0.018596917 0.0966766 -0.14241709 0.13382612 0.0240943 0.0587789 -0.15450454
00000000: 2c2c fa3d a3d6 503d 4551 013e d734 b03d
00000010: c2d0 b03d c3ec f83d d0e6 21be ec13 57bc
00000020: 051f 1139 5eab 663c 1136 09bd affb 84bd
00000030: 6246 62be 6a1f 1bbe dd14 40bc ede7 333c
00000040: 1059 e8bd b99a 7bbc ec27 5bbc a535 08be
00000050: 1450 e13c b893 5d3e e9b3 57bd 0840 043d
00000060: 71f6 233d afdd 3fbd 69bc f63d ba16 fd3d
00000070: c44a 223e 2d66 c5bc 9104 783d c385 33bd
00000080: 0b57 a83d 14cd 183e 2b45 bf3d 7302 773c
00000090: 4c30 f53d 4bf7 92bd 0ef9 123e 0197 613e
000000a0: 9a79 473e c6a2 803e 8c6c 063d 30aa 093d
000000b0: 0222 943d 722e c4bc aad3 c2bc a6cf 07bd
000000c0: 1181 99bd cadd 98bd fd7b bb3c 9cf5 7cbd
000000d0: 298b 91bd 37b6 1fbc 3316 0e3c 76ab 85bd
000000e0: 2032 873d 970d 41bd a80f b53c ec03 bbbc
000000f0: 91bc eabd 10a7 dc3c 9549 143e a871 0ebe
00000100: c22d e73d bccc 38bd 4466 c73c 203e 4c3c
00000110: 3b8b adbd ab8d b2bb 0822 933c e64b 253e
00000120: a1ce 72be 9534 ce3d e079 a23d b301 71bd
00000130: 0902 bf3c 16cf 4c3d 6e50 3bbe 5313 6bbe
00000140: e4ba 393e 20be 5e3c 1198 8abd 51b3 92be
00000150: da7d 543e 347d a6bd d33d 2cbd d6cb 29be
00000160: ecde a03d d8a4 2f3d 59e4 2fbd 2ab3 58bd
00000170: a610 cb3d 5896 dbbd 148c 5abd 6225 92bd
00000180: 93aa 50bd 3ef5 63bc be6e dbbc 9324 34be
00000190: 3cbd 263e 7243 503e e702 79be 0d21 0abe
000001a0: e978 35be 9307 05be 07a8 1b3c bc52 c1bd
000001b0: e1ce 9ebc a522 853d 6f15 afbd 463c 0abe
000001c0: 6c15 a43c cccb d23d 8f3c 55be ddd8 1abe
000001d0: ae3f 803a ec61 4e3d 6a9a a9be 6782 933d
000001e0: 50e3 5b3d 015e 623c 0e1f c0bd b787 163e
000001f0: 5dc3 83bc 926f 783c e6fa 243d 8d48 50bd
00000200: a153 bb3c aad4 8cbe cbc0 ca3d 7e91 98bc
00000210: 1f78 acbc 51b1 fd3c b756 5c3e c460 393d
00000220: c2aa 533c 4c76 29bd 85aa 143c 290a 43be
00000230: dda7 f9bd 0bb1 a5bd 2a4f 81bd fc80 883d
00000240: 3186 47be f4d0 16be d1e8 1abe 6ba0 c2bd
00000250: 0159 c4bd ee35 073d 371f 3ebd c674 293e
00000260: e809 01bd 448c 20bc bb0d 9abd c0e2 183e
00000270: fa70 363d 6f4d 2a3d 0eb9 123e 2b5c ca3b
00000280: 81cb b4ba 6a9b c13d 0fd6 b4bc 2dc5 32be
00000290: 79d3 7b3d 00a8 7d3d ee86 48bd 22c3 ae3d
000002a0: 3bc1 97bd 573f 25bc c92f a93d 8340 1e3e
000002b0: 4657 843d 7970 15bd 9778 493d 1e71 e03d
000002c0: 7bc6 32bd 1d72 e0bd 4992 4c3d 2275 8cbd
000002d0: edc2 8cbe 2d76 5b3e 5d04 083d cf24 01be
000002e0: b4aa 07be e148 e2bc 95c1 e83d bff9 6dbd
000002f0: 0b4c 1dbb 794c 2abe a1b9 ffbd 221b 163e
00000300: c6d3 b33d 1664 693e 435b 2abd ca57 d13d
00000310: acb1 2d3e d8ac 35bd 0d12 1f3e c552 913d
00000320: d80e 083e 4b1f 49bd d857 f0bc 0826 55bd
00000330: 8113 98bd 3eb4 843c 4af3 ec3c 2659 a1bc
00000340: 0d38 d9bd f455 67bc a340 363b 6806 4b3c
00000350: 36e4 433d 47f5 fb3a ea96 783d 652a 39be
00000360: 9627 123e 934f 2e3d f991 d5bc 57ba 17be
00000370: 134f a3bd 0569 aebd 668a cabd 8329 a53d
00000380: 9a1f 01be 8a9c 903d 3e7e 0cbe f5cc d43c
00000390: 2466 e23d fa20 11bd f877 533d 4e9b da3d
000003a0: e050 203d a8d5 153e c8b0 a13d 7981 433e
000003b0: 36cf 9bbd b73c 213e 7d6f 25be eed3 5b3e
000003c0: 26a9 c3bd 1582 f33d 21e4 9b3d 8905 00bc
000003d0: 4409 a299 d38e b3bd a8c1 ec3d 9bd2 4a3d
000003e0: d99c fc3c 9058 98bc 62fe c53d c9d5 11be
000003f0: b709 093e 6961 c53c 25c2 703d 7036 1ebe

fc2.bias f4 [11]
0.0002361015 0.04817137 0.018680178 0.041300595 -0.081115305 -0.02352727 0.049059194 0.065316655
-0.058621753 0.034316044 0.0008081501
00000000: 0492 7739 584f 453d 2c07 993c d02a 293d
00000010: c81f a6bd 43bc c0bc 4bf2 483d bdc4 853d
00000020: 5d1d 70bd fb8e 0c3d 09da 533a
