algorithm/OCR/newNet/net.pkl (torch_old, 483931 bytes, 12 tensors)

conv1_1.0.weight f4 [16, 1, 3, 3]
00000000: e79e 98bd 4496 b1bc 1cf3 3dbe 342d cd3d
00000010: 0f24 2cbe 8a00 01bd 4e87 4c3e 3f4b db3e
00000020: 970f f83d ed4d d1bd adea 8e3d a2fb 3dbd
00000030: 51fc 3f3e 5b69 a03d e1fc 3f3e 1d46 c13e
00000040: 6250 dcbd a76c b8bc 8fbc 293d 0ce9 4dbd
00000050: dd3b 6dbd 9a6d bcbe 3e60 b7be 7773 babe
00000060: 5db3 babe d2b1 bbbe 3dbe 97be 41c2 8ebe
00000070: a5e0 95be eee1 383e 4bdc 903e e308 9e3e
00000080: c8d5 7c3e abe0 263e 4282 463e 86b2 11be
00000090: f8f7 ab3e 583e 183c 980f 9f3e a1e5 0d3e
000000a0: b8d5 a23e bba5 9f3e 6431 13bd c183 8dbd
000000b0: 0e21 9d3d 8353 0abd 724e 953c 2c53 293e
000000c0: 29e8 9dbe fb41 91bd 8cfd 94be 450d a23e
000000d0: 986c 8fbe d3d3 083d 3a81 adbd 49e4 593e
000000e0: 71c5 6c3b 68c4 33bb b47a 8f3e a097 c23e
000000f0: 5acd 8dbe b410 b6be 5359 893d 47ca 1b3e
00000100: bc9f f13d cb27 bf3e 7418 403e d000 1cbe
00000110: fe06 6ebe ef17 9c3e e7a0 c13e f2dc 1ebe
00000120: bb4c 81be da0f e03d 8998 6bbe 75f0 fabd
00000130: c9ee b4be 73d7 c93d e4ac 16be a772 5fbe
00000140: 9951 5dbe 37de 58bd b44c 753e 9f1c 313d
00000150: 1d5d d03e 4ed8 e9bd 77d3 9fbd 9c74 d73e
00000160: b2fb a2be dcb8 25be 9481 7abe 5d3a ca3e
00000170: 1495 893e a501 27be 0199 3bbe 82d9 263e
00000180: d14a 7abe b195 163e f234 67be 8501 34be
00000190: c449 803c e0ac 643e d387 ad3e 3f6a 013e
000001a0: fd89 26be 0af0 5b3e 9b69 333e 96a5 503e
000001b0: 5e5c 8abd 2af2 a8bc 0950 423e 9a1e 353e
000001c0: 2b42 953e 2b0c 33be 02bd 7e3e 311c dbbd
000001d0: 860c e03b 1d5b 48be aecb d3bd ba3b 573e
000001e0: 7546 9e3e b970 b73d 8475 a8be 4f77 15be
000001f0: 6bcc 603e cc35 2bbe beb1 a9be ae1f bb3c
00000200: ab86 b4be 7588 35bd 92f9 b9bd ef40 c8bc
00000210: 1055 f6bd 111e a8bd 06f7 6ebe d9ed 7abe
00000220: 522d 073e b1d3 9b3e a034 9bbe 211b d5be
00000230: 566b 84be 5fc8 a73e b8ea 993e de6d cbbe
-0.07452183 -0.021678098 -0.1854977 0.100183874 -0.1681063 -0.031494655 0.1997349 0.42830846
0.121123485 -0.10219941 0.069783546 -0.046382554 0.18748595 0.07832595 0.1874881 0.37748805
-0.10757519 -0.022512747 0.04143959 -0.05027108 -0.05791842 -0.3680237 -0.35815614 -0.36416218
-0.36464968 -0.36659104 -0.29637328 -0.2788258 -0.29272953 0.18054935 0.2829307 0.30866155
0.24690926 0.16296642 0.19385627 -0.14228258 0.33587623 0.009292208 0.31066585 0.13857128
0.3180368 0.3118113 -0.035935774 -0.06909896 0.0767232 -0.03377105 0.018225882 0.16535634
-0.30841187 -0.07092663 -0.2909969 0.3165075 -0.28012538 0.033405136 -0.08471914 0.2127849
0.0036128426 -0.00274303 0.28023303 0.38006306 -0.27695733 -0.35559618 0.0670649 0.15213881
0.11798045 0.37335047 0.18759328 -0.15234685 -0.23244855 0.3048701 0.3781807 -0.15513971
-0.25253853 0.109405234 -0.23007406 -0.12252895 -0.3533843 0.09855547 -0.1471439 -0.2182108
-0.21613158 -0.052946296 0.23955041 0.043240186 0.4069604 -0.1141821 -0.078040056 0.42081153
-0.31832653 -0.161838 -0.24463493 0.39497653 0.2687155 -0.16309221 -0.18320085 0.1629391
-0.24442603 0.1470554 -0.22578791 -0.17578705 0.015660174 0.22331572 0.33892688 0.12638186
-0.16263576 0.21478286 0.17520754 0.20375666 -0.06755899 -0.020623285 0.18975843 0.17687455
0.29152045 -0.1748511 0.24876788 -0.106987365 0.0068374304 -0.19566007 -0.10341583 0.21018878
0.3091313 0.08957047 -0.32902157 -0.14596294 0.2195298 -0.1671974 -0.3314342 0.022842254
-0.35258994 -0.04431959 -0.09080805 -0.024445025 -0.12027943 -0.0820886 -0.2333642 -0.24504794
0.13200882 0.30434945 -0.30313587 -0.4162226 -0.2586314 0.3277006 0.3006189 -0.3973226

conv1_1.0.bias f4 [16]
00000000: 0087 8a3d e461 b93c 6131 9a3e b023 cdbd
00000010: b4b1 bc3d 7e04 13be 3922 9bbe ec2e 073d
00000020: e553 0abe 0843 01bd a7ee 2dbd e5a9 8abe
00000030: 6c22 2b3e 5e4b 613e efa4 813e 9f46 403d
0.067640305 0.022629686 0.30115798 -0.100165725 0.09213582 -0.14357182 -0.30299547 0.033003733
-0.13508566 -0.031558067 -0.042463925 -0.27082744 0.1671235 0.22001407 0.25321147 0.04694235

conv1_2.0.weight f4 [16, 16, 3, 3]
00000000: 0df6 23be 23fb d4bd 24a5 5fbb 676e b9bd
00000010: 6461 2d3d 1eeb 96bd 6cce 3e3c 737d 79bd
00000020: 2173 503d 3a94 923c 1528 2e3d e125 233c
00000030: 57ba d8bd 1881 813d 0d15 00be b617 f33c
00000040: 2317 76bd f828 563d 0158 ef3c 1d64 af3c
00000050: 12fc 52bb c482 ee3d 5189 f43d 2d67 013d
00000060: 0586 2f39 21f8 0d3d 5a36 ab3d a52f 743d
00000070: 5760 6c3d 33bf e138 f361 98bc d0ac 02be
00000080: 9fff f5bd a51b 893d ad0d 74bd 59d5 b6bc
00000090: bd34 e43d c232 e3bc 4e62 25bd 8ebd 9cbd
000000a0: 1abe 3a3d f9e2 d53c 7e0e 013d 8624 fabc
000000b0: 954e 73bd e0df 543d d0c7 8ebd c242 97bd
000000c0: a109 a83d 2882 a53d 8264 2fbd b192 afbd
000000d0: bbe4 ca3b ba76 0dbc c252 793d ff61 843d
000000e0: 4f28 03bc e7c9 84bd f318 4fbb ee17 c23c
000000f0: a314 ba39 6977 91bd 8df0 abbc 4ac3 4cbd
00000100: 93de e9bc 481d e53d 2d86 843d 8596 933d
00000110: 50ef 673d 30fb cfbc 437c 81bd bc99 133d
00000120: 87ec 233d 209e 763c 0e72 113d db54 393d
00000130: f0c4 093d 100d a1bb 39ac 2b3d 5656 aebd
00000140: a977 6d3d 123f dc3c 3c08 3dbb bd35 b73d
00000150: 63e0 443d f17f d63c 4ee2 06be d0da abbd
00000160: 88f8 a03c b780 0bbd 20be f13c 92e6 353d
00000170: 4e84 843d d470 4b3d 3f4b 083e 0fc6 0abe
00000180: 5307 1a3d 5fe9 fcbb 7a5e 433d 8c51 b2bb
00000190: 62cc 86bd f73c 8f3d c497 74bd 3724 dabd
000001a0: 14de 7abc b102 263c 1a86 7b3d 2133 b6bd
000001b0: 8a0d 7abc a7b4 ba3d 1172 833d 8f2e 73bd
000001c0: 7484 4ebc 2432 383c 0cd9 4fbd ec98 7a3d
000001d0: 408c a23b 22b3 2abd 8bba 823d 131e 853d
000001e0: bb65 a43d 51fe 5b3c ea3d 9ebd f349 593d
000001f0: 2569 623d e718 c13c 21ee 62bd 26ec 1bbc
00000200: 8d82 a23d af51 44bc 19db aebc be70 9abd
00000210: 9c31 ac3c 9917 533d 198a 173d f000 6cbd
00000220: 24d0 81bd 8a65 633d 9235 183e 1a3f 5a3d
00000230: a68a 1bbe 42b4 343c ce32 fd3c 6140 f23d
00000240: e17b 09bb dfeb 5bbc 279c e73c 32f7 f0bd
00000250: 5549 9bbd 0f9c 203d fecf 09bd 8467 8d3c
00000260: 6150 a03d 437b d13d 5d4e 90bd 744f 8a3d
00000270: 2cfa 283c ffd9 19bd 62fb bc3d a937 b13d
00000280: 6d6f 0cbe 56ef 003d 4261 dfbd b118 f03c
00000290: 5075 d1bd e508 a43d b73d 64bd 7990 f83c
000002a0: b619 9e3c 5f47 f73c 6054 a63d 0b65 133d
000002b0: dc08 22bd eb77 7bbd 1bab 8cbb 78ef f8bb
000002c0: 4aea 86bd 198c 52bc 30ec a63c 9e95 09bd
000002d0: d094 a13d cd04 b5bb 2053 913d 4283 ac3c
000002e0: 5979 a73d f5b2 b03d e57d 0d3d ca04 523c
000002f0: aab6 b4bd 8f08 33bd dd67 aebd 0b5a 9fbd
00000300: 55a9 9b3d fda7 9fbd aee7 46bc 4202 6f3c
00000310: 7ce1 0bbd 5127 a0bb 328f 39ba 6e7c 053e
00000320: bcef a63d 08a8 62bd c695 33bd f05d fa3c
00000330: 5f79 85bd 24d1 7c3d 19a8 c4bc b8ba cfba
00000340: fe4a a93c 85a1 07bd 3ab4 153d 4ac8 a83d
00000350: 3322 de3d f8a5 433d 7140 76bd 3428 c43d
00000360: e9e8 453d 7e0f 783c 8724 8dbd a9f3 7ebd
00000370: 5222 92bd d589 40bd 0104 dcbb 359e 2f3d
00000380: e2b1 133d 361d 073e 51ea abbd fd58 0f3e
00000390: 6de7 303d 52ea 13be eeb3 b03c dbc5 0a3e
000003a0: 329c ebbd f6c9 e53d 5641 dabd 79cc 293e
000003b0: a8e3 7abd 6346 493c f76c 413e fc19 15bd
000003c0: 3c57 9dbd 2f26 2c3e b2f4 3bbc 77b3 8e3d
000003d0: 24b0 b6bc 60df 19bb 9ba2 253c d635 12bd
000003e0: 6c0b 283d 2f35 b33d fe0a d73c 7076 33bc
000003f0: c5eb f8bc b76a 873b 3de0 3c3d 0de9 9c3d
-0.1601183 -0.10399463 -0.003412553 -0.09054261 0.042329207 -0.07369064 0.0116458945 -0.060910653
0.050891045 0.017892946 0.042518694 0.0099577615 -0.105824165 0.06323451 -0.1250803 0.029674392
-0.06008066 0.052285165 0.029216768 0.021410042 -0.0032193703 0.11646035 0.119402535 0.031592537
0.00016739227 0.034660462 0.08359976 0.05961575 0.057709064 0.0001076445 -0.018601393 -0.12761235
-0.120116465 0.06694726 -0.059583355 -0.022318529 0.111428715 -0.027734164 -0.040376954 -0.07653342
0.04559145 0.026109206 0.03150796 -0.030534994 -0.059401114 0.051971316 -0.06971705 -0.0738578
0.082049616 0.08081466 -0.04282046 -0.08572901 0.0061918176 -0.008634264 0.06086994 0.06464004
-0.008005216 -0.06483822 -0.0031600564 0.023693051 0.0003549206 -0.07102854 -0.020988727 -0.04999093
-0.028548514 0.111872256 0.064709045 0.07206444 0.05662471 -0.02538833 -0.06322529 0.036035284
0.040020492 0.015052348 0.03550916 0.04524694 0.03363508 -0.0049148872 0.04191229 -0.08512561
0.057975445 0.026885543 -0.002884402 0.08945797 0.048065554 0.026184054 -0.13172266 -0.083913445
0.019649759 -0.0340583 0.029509604 0.044409342 0.064705476 0.04966815 0.13309954 -0.13552116
0.03760464 -0.0077182497 0.04769752 -0.00544185 -0.06581952 0.0699405 -0.059715047 -0.10651439
-0.015311737 0.010132478 0.061407186 -0.08896471 -0.015262017 0.09116488 0.06418241 -0.059370574
-0.0126048215 0.011242423 -0.0507441 0.061180994 0.0049605668 -0.04167474 0.063832365 0.06499877
0.08027216 0.013427333 -0.07726653 0.05304904 0.055276055 0.023571445 -0.05540288 -0.009516751
0.07935057 -0.0119823655 -0.021344708 -0.07541035 0.02101975 0.051536176 0.036996935 -0.05761808
-0.06338528 0.055516757 0.14864185 0.053282835 -0.15189609 0.011029305 0.030908015 0.118286856
-0.0020978379 -0.013422935 0.028272701 -0.11765899 -0.07582346 0.03921133 -0.033645622 0.017261274
0.07827831 0.102285884 -0.070461966 0.06753436 0.010313552 -0.037561413 0.09227635 0.086531945
-0.1371438 0.03147825 -0.10907222 0.029308649 -0.10227454 0.08009509 -0.05572292 0.030342327
0.01929937 0.0301854 0.08121562 0.035985034 -0.03955923 -0.06139366 -0.0042928583 -0.0075969063
-0.06587656 -0.012850785 0.020376295 -0.03358995 0.07889712 -0.005524254 0.07095933 0.021058682
0.08177442 0.08627883 0.03454389 0.012818525 -0.08823903 -0.043709334 -0.08515904 -0.07780846
0.07600657 -0.07795713 -0.012140198 0.014587941 -0.034150586 -0.0048874994 -0.00070785277 0.13035747
0.081511945 -0.05533603 -0.043844007 0.030562371 -0.0651729 0.06172289 -0.024005936 -0.0015848493
0.020665642 -0.03311302 0.03654883 0.08241327 0.10846367 0.047765702 -0.06012005 0.09577981
0.048317824 0.015140412 -0.06891733 -0.06224409 -0.07135452 -0.047006447 -0.0067143445 0.042875487
0.036058314 0.13194737 -0.08394302 0.1399879 0.043189455 -0.14444855 0.021570172 0.13552038
-0.11504401 0.112201616 -0.10656993 0.16581906 -0.061252266 0.012284848 0.18889223 -0.036401734
-0.07682654 0.16811441 -0.011471914 0.06967824 -0.022300787 -0.002347909 0.010109569 -0.035695873
0.041026518 0.08750378 0.026250359 -0.010953531 -0.030385861 0.0041325944 0.046112288 0.076616384

conv1_2.0.bias f4 [16]
00000000: ed42 08ba a613 96bd bf63 043d 1b66 9c3d
00000010: 6f20 2ebd b510 c93c 5eba eabc 9ab4 213d
00000020: 6e31 343c 1be2 983d f080 673d 8983 49bd
00000030: 5963 933d 38c3 bf3d 6278 163d 9ee9 dabc
-0.0005197961 -0.073279664 0.032321688 0.076366626 -0.0425114 0.0245441 -0.02865332 0.039478876
0.010998113 0.07465001 0.05651945 -0.049197707 0.071966834 0.09363407 0.0367359 -0.026722725

conv2_1.0.weight f4 [32, 16, 3, 3]
00000000: 3c0e 733d 6440 ca3d 8641 823d 021b 1f3d
00000010: 8729 c43d 292e 743d b3ac b3ba a248 d63d
00000020: c5fe 1dbb 1401 12bd f7c2 c13d f633 f73d
00000030: 0797 b7bd d146 833d 88db 96bd 4163 253d
00000040: 7996 9fbb a5d5 c7bd 97e9 1e3d 4439 bb3d
00000050: 1bc8 163e 9c83 153d f6d9 0a3e 04a4 703d
00000060: e8a4 c43d b74c e93d a6d9 04bd 42ec 323d
00000070: 5a58 13bd 8c0a 0ebd 5550 8bbb e98e 523d
00000080: a17c 0d3d 0963 82bd de3f 17bd 9cd2 d93c
00000090: f4ed 1dbd e017 92b9 61ec 75bd 84f6 603d
000000a0: 58d5 193d 1fe9 c43d b485 3a3d 752d 08bc
000000b0: 4adc 453d 4118 bbbb 008c bf3c 561d dc3d
000000c0: f29f d2bb 2f1c 793c 9aec c13c 8b70 9dbd
000000d0: 7b22 c3bd 437f 6fbd 787f d93d 3824 243e
000000e0: 77f6 6b3d c30a 04bd 4c0c cd3d 3418 aabc
000000f0: 545f 0bbd d4cd 92bb 80c2 d2bc d73f 1bbb
00000100: 55c9 9f3b 1e2b 9cbb a0b6 9bbd aa8d a0bd
00000110: a79b 393c 479b 34bd e904 dfbd 9519 e5bd
00000120: 8759 2abd f367 c53b 2b11 cb3c 6937 1c3d
00000130: 2a8d 893d ba41 e2bb 05db debd a953 c1bd
00000140: dfef b7bc 1d5e ba3c dafd 83bd 0c62 fcbc
00000150: 18da 80bd 9e34 1abd 7b0d f739 9e10 b93d
00000160: ce2f 1b3d a94b c7bb c46b 94bd 9f26 c23d
00000170: 2203 8b3d 869d ab3d c734 023d 2a85 17bd
00000180: bd6b 273d 8a13 64bc 24a8 71bd 8d31 913d
00000190: 4e79 1ebd 76e9 9e3d 35d6 a4bd 1e85 d5bd
000001a0: 70a5 f8bb a8ed 3c3d 4894 563d f138 23bd
000001b0: 3f48 9c3d 9141 c53d 7ee6 103d b195 9e3d
000001c0: d7f5 323d 5637 103d 1e71 ce3d 5bd6 e43b
000001d0: d172 6a3d 44ab 31bd bf94 8e3c e94a 60ba
000001e0: 54ac 37bd 5e6a 033c 8c7e 473d 73dc 5fbd
000001f0: d0d2 b63d cc69 b33c 62f7 a93d ba9a 0e3d
00000200: 7e0e 9a3d 332c c7bd 3b53 6d3d bb21 9b3d
00000210: dafe 94bc 3659 26bd 2833 b83c 6221 14bd
00000220: 628d 803d 35dd 60bd 2575 8dbc 2c14 dfbd
00000230: a7b6 73bd 0d95 e6bd f7be de3b a83e 933c
00000240: 095f e2bc f444 0c3d f0e5 823d 6621 bdbc
00000250: 9018 a53c c124 9ebd 989f b43d 6ff0 21bd
00000260: cf3c 7b3d 2895 a73d 3558 87bc de1b 883d
00000270: 1d47 b83c df48 913d 9b17 143c 6290 ccbd
00000280: c04c b6bd 1522 13bd 08ec ca3d 2f94 ed3d
00000290: 3ba1 40bd 685a 4d3d 239e 9c3d 2c73 b6bd
000002a0: f796 88bc 2b2e 853d 334e 003d 7ef5 c7bd
000002b0: d22d 993d 3e1c 32bd a38d 5d3c bc12 483d
000002c0: 919d 843d 9c6a 893c 9d3e 183d 7daa ddbc
000002d0: de63 0b3d a49b b7bb 25b1 1cbd 9a42 053e
000002e0: 9ae8 00bd cc29 81bd af1e 543c 64f8 e73d
000002f0: 3119 87bd 6c5b bcbc 5571 a13d 8ab4 d93d
00000300: c1f7 66bd 1ba0 d9bc df99 673d a999 e4bd
00000310: e175 213c f2a6 d33c 1700 ea3d 13ff 38bb
00000320: f073 333d 9e63 25bd 2757 623c 5d78 e2bc
00000330: 1e07 563d fc57 b5bd 745a 44bd ab0f c3bd
00000340: 4022 c33c 2fba 2abd b44c 063d 5137 efbc
00000350: 1910 903d cd0a c5bd 8d7e 0fbd 139f 2c3d
00000360: 129b d6bc 3290 76bd f649 d53d e49a e5bc
00000370: e82c 67bd 0934 4fbd c302 91bd 47e0 1bbd
00000380: 16f7 b03d 1953 8a3d 9d10 2a3b da82 0dbc
00000390: 8a95 f03c cde3 88bd 604a 3e3d af17 783c
000003a0: d83f 12bb e7bb a9ba 1a20 523d 9642 b7bd
000003b0: 2b72 babc 5c79 55bc f747 913d 6be1 73bd
000003c0: 228e 5a3c c230 273d 5b70 4fbc d3af 2fbd
000003d0: dbb2 b43d b612 2fbd 942a 98bd 0fee 903c
000003e0: 13cf 003c 59ed aebd c3b5 63bd 6a65 33bc
000003f0: 353e 48bd b46f 17bd ee02 50bd ffa9 0f3d
0.059339747 0.09875563 0.06360154 0.038844116 0.09578233 0.059614334 -0.0013708085 0.10463072
-0.0024108153 -0.03564556 0.09461015 0.12070458 -0.08964353 0.064099915 -0.07366091 0.04037786
-0.0048702327 -0.09757546 0.038796987 0.09141782 0.14724772 0.036502466 0.13559708 0.058750167
0.09601766 0.11391585 -0.03243413 0.043682344 -0.03597293 -0.034678027 -0.0042515197 0.05140582
0.034542684 -0.06366546 -0.036926143 0.026589684 -0.038557008 -0.00027865078 -0.06003988 0.054922596
0.037556976 0.09614777 0.045537665 -0.008311619 0.048305787 -0.0057096784 0.023382187 0.10747783
-0.0064277584 0.015204473 0.02367239 -0.076874815 -0.09528061 -0.058470976 0.10620016 0.16029441
0.057608094 -0.032236826 0.10012111 -0.020763494 -0.03402646 -0.004480103 -0.02572751 -0.0023689175
0.0048762956 -0.004765882 -0.07603192 -0.0783952 0.011328614 -0.044093397 -0.108896084 -0.1118652
-0.041589286 0.0060243546 0.02478846 0.03813878 0.06716378 -0.006904808 -0.108816184 -0.09439785
-0.022453247 0.022749955 -0.06444903 -0.030808471 -0.06291598 -0.037647836 0.00047121555 0.090363726
0.037887387 -0.0060820174 -0.07247117 0.09480023 0.06787707 0.083796546 0.031788614 -0.03699223
0.04087423 -0.013920674 -0.058998242 0.07089529 -0.038689904 0.07759373 -0.08048669 -0.10425781
-0.007588081 0.046125084 0.052387506 -0.039849225 0.07630967 0.096316464 0.035376064 0.07743395
0.043691482 0.035209022 0.10080169 0.006983561 0.057238404 -0.043376222 0.017404912 -0.00085560844
-0.04484208 0.008020965 0.04870467 -0.054653596 0.08926928 0.021901034 0.08299138 0.034815527
0.075222954 -0.09725227 0.057940703 0.07574793 -0.018187929 -0.040612422 0.02248533 -0.03616465
0.06276967 -0.05489846 -0.017267773 -0.10892519 -0.059500363 -0.11258898 0.006797667 0.017974213
-0.027633207 0.034245446 0.06391513 -0.023087215 0.020153314 -0.07721854 0.088195026 -0.039535936
0.06133729 0.08182746 -0.016521553 0.0664594 0.022494847 0.07093977 0.009038831 -0.09988476
-0.08901358 -0.035921175 0.09908301 0.116005294 -0.04702876 0.050135046 0.0764735 -0.08908686
-0.016673548 0.065029465 0.031324577 -0.09763621 0.07479443 -0.043483965 0.013522538 0.04884599
0.06475366 0.016774468 0.037169088 -0.027058834 0.034030788 -0.0056032706 -0.038254876 0.13013688
-0.031471826 -0.063068 0.012946769 0.113266736 -0.06596602 -0.022992812 0.078829445 0.10630138
-0.05638862 -0.026565602 0.056543227 -0.11162121 0.009854765 0.025836442 0.114257984 -0.0028228208
0.04381174 -0.040378205 0.013814724 -0.027645284 0.05225288 -0.08854672 -0.047937825 -0.09524473
0.023820043 -0.041681465 0.032787994 -0.029201182 0.070343204 -0.09621201 -0.035032798 0.042143892
-0.02619699 -0.06019611 0.104144976 -0.02802796 -0.05643931 -0.050586734 -0.07080605 -0.038055684
0.08640878 0.06754131 0.0025949844 -0.0086371545 0.02936818 -0.066840746 0.04645765 0.015142365
-0.0022315886 -0.0012949676 0.051300146 -0.08948247 -0.022759518 -0.013029423 0.07093804 -0.059541147
0.013339551 0.040817983 -0.012661065 -0.04289229 0.088231765 -0.042742454 -0.07429996 0.01769164
0.00786187 -0.08541364 -0.055593263 -0.010949472 -0.04888745 -0.036971763 -0.050784044 0.03507423

conv2_1.0.bias f4 [32]
00000000: 5ca1 06bb 940f 8fbd 55a8 a63d 1f15 b4bd
00000010: 5706 a63c b5e8 963d 5e68 8bbc 12c9 e8bc
00000020: 0644 d2bc cab2 e73c fbda 3abc 6c06 25bc
00000030: 0d22 d7bc 304d ff3b 5db9 a7bd cc9d 8f3d
00000040: fbfb 67bd 9198 a4bd 7d03 87bd 7a07 96bd
00000050: 7a9e c9bc a86e 423d eeb1 713d 7509 9c3c
00000060: f456 1bbd 2b07 94bd c706 18bc f5d0 a83d
00000070: 873b 9cbd 00e1 68bd 540b a4bc 9a51 e13c
-0.0020542955 -0.06985393 0.081375755 -0.08793091 0.020266695 0.07368604 -0.01701754 -0.02841619
-0.025667202 0.028283495 -0.011404748 -0.010072332 -0.026261354 0.007791184 -0.08189652 0.07012519
-0.05663679 -0.08036912 -0.06592462 -0.07325645 -0.0246117 0.04746881 0.059007578 0.019047478
-0.03792472 -0.0722793 -0.00927896 0.082429804 -0.076285414 -0.0568552 -0.020024933 0.027504731

conv2_2.0.weight f4 [32, 32, 3, 3]
00000000: 61f9 12bd b0d3 27bd 0549 29bd 9e06 41bd
00000010: 7e86 b33c 38f3 753a c6a0 12bd a9d1 463c
00000020: e281 153d 79ab 80bd 4b69 29bd 21df 0d3d
00000030: aacf 70bd 8b41 30bd e9ed ba3c df39 40bd
00000040: 745a b9ba ea58 40bc f687 82bc 1b34 8ebd
00000050: f612 973d 4340 47bd c612 6cbd 4d01 513c
00000060: 354b babc 0469 553d c39c 0e3d 4a1e 2e3d
00000070: 60cb 00bd d419 00bd 0b8f 0abd 942f 6bbd
00000080: 358a 0f3d 772b 2e3d c8b8 413d 3ad2 bf3a
00000090: 8b6b e1bb 86e9 30bd b469 663c a6c4 de3c
000000a0: 4258 1ebd 47d1 82bc 7e03 2abd 0375 b13c
000000b0: 3ab3 a53d d549 213c c52b 1bbd f3e7 43bb
000000c0: 5ba2 57bd 3e4f c9bb 0a49 c8bb 9c81 35bd
000000d0: 96d2 43bd d941 97bc b8a1 d63b 5938 703d
000000e0: ea9f 40bd 728b 2b3b 1836 663d e7e7 6ebd
000000f0: 19a6 933d 2d4b 0dbd 77db 9fbc c46f 5dbc
00000100: 3392 babd de2a 713d e923 aabd 80e4 b7bd
00000110: 22cc d5bc 6239 6f3c 7d49 08bd 0945 8c3d
00000120: 9a81 b73c 93ba 83bd 6e5c 97bd bb05 c9bc
00000130: efe6 47bc 63f9 813c 02ce 12bd 56b7 a4bd
00000140: 00b6 4f3c e74b ed3c bef5 a83c 5544 74bc
00000150: 1d47 1e3c 7059 c7bb cca6 0a3d d215 233d
00000160: 36ce b53c ba08 f3bc e228 0d3d da24 47bd
00000170: b1a1 86bd 5a41 adbc 3d49 ef3c f8da 7ebc
00000180: ad7e fdbc e82d 843b d5a4 353d 26b4 e03c
00000190: 264a 9ebc 5be9 99bd fd6c f33c 5671 063d
000001a0: 220f 6bbd 42d0 ed3b 51e7 3c3d b6c4 3cbd
000001b0: fee2 ac3d cb48 383c eb6a 073d 890c 8c3c
000001c0: 563d 713d 31ee 4a3c 9764 973d 10ae 7b3d
000001d0: 9afe d73b 4804 19bc 9c74 02bc 74e0 dfbc
000001e0: 733b 79bd 9a05 f2bb 6e3b 783b 8721 653b
000001f0: 96a9 073d a7de 9a3d 0f7a 1bbd e0ff 313d
00000200: 3717 38bd 17f9 423d 5aca fa3c 9f49 83bd
00000210: aa1d ec3c 0bb9 cd3c 7996 fd3a f8d4 f2bb
00000220: dd59 c43b 6f76 753d 942f 92bd b4ec 033d
00000230: 5c8d 2abd eda8 36bd a35f 0cbd 9f07 ca3c
00000240: 0f54 1d3d 07e5 0d3c b5ba b0bd c194 a1bb
00000250: 48b9 993c 2911 1dbc 2dc0 abbc 23d6 88bc
00000260: 1694 bd3c 2e98 843b 8c81 33ba 49f7 f1bc
00000270: 19c5 563d fa98 29bd a145 80bc 663f 893c
00000280: c7e3 8a3d 3d91 83bc eaa9 8ebd cc05 8ebd
00000290: 5c80 33bd 7e82 94bd 0f39 aabd 2047 8b3b
000002a0: 8885 8e3c f523 37bd 1857 bd3c 641f d43a
000002b0: 0f90 be3d ad9f a9bc a705 403c f0c5 f13c
000002c0: 4804 a13c edfc ca3c f4fb e93c ca36 953d
000002d0: f2da 503c 0ced 4abd 83cf 0b3d b6dc 8ebd
000002e0: 4680 43bd e983 1cbd 3ee2 563b 9a5a f33c
000002f0: 625d 40bc 40e8 873b 503f 583d 39cd abbc
00000300: 1284 f03c 162d 3d3d 3f0b 123c 8f3e b83b
00000310: 2b17 403d 7cd0 023a 4631 95bd 30a6 44bd
00000320: 1e89 fc3c e39f 853c 4d5d ccbb 21c5 dfbc
00000330: e869 a03a 36b1 8fb9 bae9 643d 2de8 30bd
00000340: dbe2 9dbd c541 f73c 7560 d6bd d339 d53c
00000350: 6972 a93b f49c 9dbd 01ef 2ebd a185 ac3d
00000360: d9a4 c6bc 18dc 383d e2da 9d3d 0dbb a5bd
00000370: f540 593d 1f45 8a3d 3cd0 31bc 9cd5 e5bc
00000380: be45 913b e23e 60bd f07c 603d 785d 8ebd
00000390: e084 0f3d a6e4 223d ba9e cb3b 23bc c93c
000003a0: 19cc fa3c 6a14 733d daeb 92bc 570d b9bd
000003b0: bfe9 523c 5ccf c53c ea52 e6bc fd6f 1c3c
000003c0: 3ff8 00bc 88c4 81bd ba07 f6bc 6da3 b73d
000003d0: ac8b ca3d 39de 483d c372 b03d 7071 d93d
000003e0: 9a1d 2fba c1e5 873d ae5a 5c3d b1cd 1abd
000003f0: aa21 a43d bd65 90bd 00fc 93bd 5b50 183d
-0.035882358 -0.040973365 -0.041329402 -0.04712545 0.021914717 0.0009382251 -0.035797857 0.012134948
0.03650082 -0.06282706 -0.04136018 0.03463662 -0.058791794 -0.043031257 0.022818523 -0.04693019
-0.0014141337 -0.011739949 -0.015933972 -0.06943532 0.073766634 -0.04864527 -0.05763509 0.012756658
-0.02274094 0.052102104 0.03481747 0.042509355 -0.031443954 -0.03127463 -0.033827823 -0.05741842
0.035043914 0.04252192 0.04729536 0.0014634796 -0.006879275 -0.043191455 0.0140632875 0.027193379
-0.038658388 -0.015968932 -0.041507237 0.02166224 0.080908254 0.009844263 -0.03788354 -0.0029892891
-0.05264507 -0.0061434796 -0.0061122226 -0.04431306 -0.047808252 -0.018464016 0.00655004 0.058647487
-0.047027506 0.0026175645 0.05620393 -0.058326628 0.07209415 -0.03449552 -0.019513829 -0.0135154165
-0.091099165 0.058878772 -0.083076306 -0.0897913 -0.026098315 0.0146010835 -0.03327321 0.06849105
0.022400666 -0.064320706 -0.073906764 -0.024538865 -0.012201055 0.015865987 -0.035840996 -0.08042781
0.0126776695 0.028966857 0.020624992 -0.01490887 0.009660509 -0.00608366 0.033850476 0.03981573
0.022193056 -0.029667247 0.034462817 -0.04861913 -0.06573809 -0.021149326 0.029209727 -0.015555136
-0.030944193 0.0040337928 0.04434665 0.027429651 -0.019322466 -0.07515212 0.029715056 0.03282293
-0.05738748 0.0072574923 0.046119038 -0.046086036 0.08441733 0.011247824 0.03306095 0.017095821
0.058896385 0.012385891 0.07392233 0.061445296 0.00659163 -0.0093394 -0.007962372 -0.027328707
-0.06084771 -0.0073859217 0.003787722 0.003496261 0.033120714 0.07561999 -0.0379582 0.043456912
-0.044944014 0.04760083 0.030614067 -0.064105265 0.028822739 0.02511265 0.0019347213 -0.0074106418
0.005992158 0.0599274 -0.07137981 0.03220816 -0.041638717 -0.044594694 -0.034270894 0.024661837
0.038410243 0.008660561 -0.086293615 -0.004931063 0.018765107 -0.009586611 -0.02096566 -0.01670367
0.023141902 0.0040464615 -0.0006847612 -0.02953686 0.05243406 -0.041405655 -0.015658202 0.016753864
0.06781726 -0.016060466 -0.06966002 -0.069346994 -0.043823585 -0.07251452 -0.08311664 0.004250422
0.017397657 -0.044712026 0.023112819 0.0016183672 0.09304821 -0.020706022 0.011720098 0.02951333
0.019655362 0.024778808 0.028562523 0.07285841 0.012747513 -0.04954247 0.034133445 -0.06975691
-0.047729753 -0.038211737 0.003278866 0.029706288 -0.011741014 0.0041475594 0.052794755 -0.020971881
0.029359851 0.046185575 0.008913814 0.005622692 0.046897095 0.0004990173 -0.07284789 -0.04801005
0.030827101 0.016311591 -0.0062367083 -0.027315678 0.0012238594 -0.00027407118 0.05588696 -0.04319017
-0.07709285 0.030182729 -0.104676165 0.02602855 0.0051711095 -0.07695952 -0.0427084 0.08423925
-0.024248527 0.045131773 0.07707764 -0.08092318 0.053040463 0.06751465 -0.01085287 -0.028055958
0.0044333627 -0.05474747 0.05480665 -0.069514215 0.03503883 0.039768837 0.00621399 0.024625843
0.0306149 0.05934564 -0.017934728 -0.090357475 0.012873112 0.024146728 -0.028115708 0.009548184
-0.0078716865 -0.063363135 -0.030032981 0.08966718 0.098899215 0.049040053 0.08615639 0.106173396
-0.0006680131 0.06635619 0.053797416 -0.03779382 0.080142334 -0.07050655 -0.072257996 0.037186008

conv2_2.0.bias f4 [32]
00000000: 3fb2 1f3d 81a0 15bd a070 593d 5440 99bd
00000010: cf94 3e3b 6ab6 0dbb b853 d33a 3219 47bd
00000020: 4b39 5ebd 86a1 943b 186d 1b3d da67 63bd
00000030: d1e7 25bd 694d 67bd b3a8 ef3c 20f8 07bc
00000040: fdff 123d 278a d6bc 4cec a93c 8a82 2b3d
00000050: f4b0 273c 87cb 75bc 00f5 91bb c229 9b3b
00000060: b6f6 b93b 62d5 24bc e98d 13bd fb99 5a3d
00000070: 0e79 433c 4ae8 40bd 3b8d 1bbd cfc9 36bd
0.038988348 -0.03653002 0.053085923 -0.07482973 0.0029080396 -0.002162362 0.0016122973 -0.048608012
-0.054253858 0.0045358567 0.037945837 -0.055518962 -0.04050428 -0.05647031 0.029255247 -0.008298904
0.03588866 -0.026188923 0.020742558 0.04187254 0.01023506 -0.015002138 -0.004454255 0.0047352025
0.005675162 -0.01006064 -0.036024008 0.053369503 0.011930717 -0.047096528 -0.037976485 -0.044626053

fc1.weight f4 [128, 800]
00000000: 14ad 033d 45da ec3c b661 9fbd 5176 f0bd
00000010: 42fd 763e 859f adbd c534 15bd 44e6 d0bd
00000020: c60f 2dbe c54b 3dbe f363 84bd 264b 16bd
00000030: 2f4c 7ebc 3848 5abd f230 0a3d e964 773d
00000040: 5925 3b3d dbea d8bb 0dc1 763d fb11 11bb
00000050: 76d6 433e 583b d6bc 0597 a8bd 4d7b fe3c
00000060: 3960 2bbd 707e 30bb e54a d8bc e495 3f3d
00000070: 14e5 b0bc f06d 263c 7ae9 d03d 89bb acbd
00000080: be0a 8e3c 5178 8b3c 1216 a53d 1163 103d
00000090: f773 c13d 1a3f d6bd 2f4b ad3d e313 b23a
000000a0: 5ef4 ee3d 4671 783d 30f2 cbbd 5ee7 c2bd
000000b0: 9244 b4bd 2223 1fbe bbf3 cd3d b2f7 3ebd
000000c0: f3cd e3bc 3c63 97bd 3fa8 a73d d34e 05bd
000000d0: 8c85 6cbc 3aa6 04be 8bbe 0a3d ce08 cabd
000000e0: 5a29 67be b5d8 87ba 9a2a 0fbe 73a4 133e
000000f0: b312 68bd 409a c1bc 35b4 183d a6a3 fe3c
00000100: bfdc 0a3b f1d6 693c 86e7 2dbc 6edf 973d
00000110: c289 62bd 917e 0abd 705a b0bb 04fc 40bb
00000120: 7edf b83c ae85 153c 08b3 39be a869 90b9
00000130: 2fe0 b8bc 308f 9bbb 565d b8bb 67b3 0bbc
00000140: 396f 093b 552c 2fbd 5b8d e63d 0744 dfbc
00000150: 1851 303c 7721 03bc 83ac 87bd 9048 c03b
00000160: ea33 b73d 5297 75bd e26d 643b 7527 683c
00000170: 32c8 2dbd b406 b4ba d58b f43c 0769 17bc
00000180: 198b 193d 5344 253c 8c0a 033b 66e1 88bc
00000190: 43b0 14bd 2515 2fbe f8a1 f43c e947 6bbd
000001a0: 3ceb 013d 8d7f 62bc 04b9 5dbd 2b70 af3d
000001b0: dc35 913a 89e3 5b3d 9d93 5bbd 45fd 47bd
000001c0: ec2e 393d d55d aebc 3778 bbbc 1876 183b
000001d0: 2bd6 8b3c 7571 e53d 3c8c e4bc d96d c7bd
000001e0: 5c7c 3ebc 14eb 853c 4614 3ebd 391e 0cbd
000001f0: 94cd 353d 5982 5a3d 721a 04bd 50ad 9dbc
00000200: c12f 08be 5864 943d 897a 80bd 3f45 b8bc
00000210: f9ce 90bb 6272 7cbc 62a7 23bc 2e41 c8bb
00000220: d0b4 603c 63ff 03bc 78f0 c1bc e0a4 243e
00000230: fc31 adbd 9799 d8bb 50b8 16bc 4f61 24bd
00000240: 5748 8d3c 17c8 733a ffca bbbc 6b69 933c
00000250: ccb1 9dbc cbf6 aa3a ab32 a5bc 82d9 dd3c
00000260: 653b c73c 60c3 693c 5c3f 2ebd 0613 753a
00000270: f95f 0bbb 99e1 ed3b e2e0 a7bc be8e a5bb
00000280: 9636 d3b9 1021 85bc e767 dcbd 437f 023d
00000290: fe83 ee3c f61b f0ba cd9f ce3b ff05 13bd
000002a0: 671d 20bc b5dc da3c 2bbf 7439 3282 763d
000002b0: 7999 7c3d 56d0 d13b 6904 803b 53c1 8abb
000002c0: 67c1 ccbd 1ac0 043e 7e31 6abd 63e7 1a3d
000002d0: eb17 4fbc 0add 83bd ffe5 53bd 408a 1cbd
000002e0: 18b4 b3bd cb02 6e3d 7e20 57bd 4bce a0bd
000002f0: 4c21 ef3d 83e6 10bc 7097 96bc d5e5 c8bd
00000300: f920 c7bd a998 13bd dd3b f9bc 8539 803d
00000310: 79c1 0b3e 5e3f 7739 498b 2fbd 129c 143e
00000320: 1e8b a3a0 30e8 0889 6a3d 9c9e e37c 0c85
00000330: ac4d d08c 5fbd 1285 0924 0e05 2221 4120
00000340: 4061 1c25 090a 8110 b961 53a9 7cfa ae0a
00000350: abb6 0b85 2c63 60a2 f554 a334 1457 e116
00000360: c90c a31b a5d7 4e13 2240 cc26 f0d0 ac98
00000370: e2a1 46ba a042 b434 55ae 65b7 6ff3 630e
00000380: 63eb daa4 ef45 9ebd bc21 c8bd b6b3 18bd
00000390: f98c a03b 4835 cfbc 3700 08bd 2733 cebc
000003a0: 654e f4bc f180 c83c ea63 0cbe ed97 ba3c
000003b0: 8678 94bd 3f2d 6b3d a2be 7fbd bc38 d4bc
000003c0: b70d 433d 81d4 9d3d 7d91 a13c 541c a9bc
000003d0: 1b94 393c af24 793d 0a39 c0bd 770f cb3b
000003e0: f437 813c d3df 253c 301d f1bd 0c08 f33d
000003f0: b35e 0bbc 6717 163e 15a1 b5ba 739f 6dbd
0.032147482 0.028912673 -0.07782309 -0.11741317 0.24120048 -0.084776916 -0.036427278 -0.1020017
-0.16900548 -0.18485935 -0.06464376 -0.03669276 -0.015521093 -0.05329153 0.033738084 0.06039897
0.045689914 -0.006619794 0.0602427 -0.0022135961 0.19124779 -0.026151344 -0.0823193 0.031064654
-0.041839812 -0.0026930831 -0.0264029 0.046773806 -0.021593608 0.010158047 0.10200782 -0.08434207
0.017339107 0.017025145 0.0806085 0.035250727 0.09445947 -0.104612544 0.08461606 0.0013586249
0.11667703 0.0606549 -0.09958303 -0.09516786 -0.08802141 -0.15540746 0.100562535 -0.04662294
-0.027808165 -0.07391974 0.08186387 -0.032545876 -0.014436137 -0.12954035 0.033873122 -0.098649606
-0.22574368 -0.0010364266 -0.13981095 0.14418201 -0.056658458 -0.023633122 0.037281234 0.031083893
0.0021188704 0.014272437 -0.0106142815 0.07415663 -0.055307157 -0.03381211 -0.0053818747 -0.0029447088
0.022567507 0.00912611 -0.18134701 -0.0002754454 -0.022567837 -0.004747294 -0.005626361 -0.00852666
0.0020970835 -0.042766888 0.1125743 -0.027254118 0.010761522 -0.008003584 -0.06624701 0.005868025
0.08945449 -0.059958763 0.0034855534 0.014169564 -0.04242725 -0.0013734908 0.029851833 -0.009241349
0.03748617 0.010087091 0.00199953 -0.01670904 -0.03630091 -0.1709791 0.029862389 -0.057441626
0.031718478 -0.013824356 -0.054131523 0.08566316 0.0011078673 0.05368379 -0.053607572 -0.04882552
0.045210764 -0.021284977 -0.022884471 0.0023263749 0.017069897 0.11203281 -0.0278989 -0.09737749
-0.011626329 0.016347446 -0.046406053 -0.03420851 0.044385508 0.053346965 -0.032251783 -0.01924768
-0.13299467 0.072457016 -0.06273372 -0.022493957 -0.0044192043 -0.01540813 -0.009988638 -0.0061112856
0.013714984 -0.008056494 -0.023674235 0.1607852 -0.084567994 -0.006610106 -0.009199217 -0.040131863
0.017246408 0.000929953 -0.022923945 0.017994603 -0.01924982 0.0013043521 -0.020165762 0.027081255
0.024320314 0.014267772 -0.042540893 0.0009348843 -0.002126692 0.0072595594 -0.020492975 -0.0050524166
-0.00040285726 -0.016251117 -0.10762005 0.031859647 0.029115673 -0.001831888 0.006305671 -0.03589439
-0.009772635 0.02671657 0.00023340869 0.060182758 0.0616698 0.0064030094 0.0039067757 -0.004234472
-0.09997826 0.12963906 -0.057176106 0.037818324 -0.01263998 -0.06438644 -0.051733013 -0.038217783
-0.087745845 0.058108132 -0.05252122 -0.07851847 0.11676273 -0.008844021 -0.018382758 -0.09809462
-0.09723086 -0.03603426 -0.030424053 0.06260971 0.13648023 0.00023579362 -0.042857442 0.14512661
-2.7705334e-19 -1.6479579e-33 -1.6542543e-20 -6.6057064e-36 -3.2094221e-31 -6.899669e-36 6.6834265e-36 1.6358699e-19
1.3563793e-16 5.089699e-29 -4.6936173e-14 1.6849812e-32 -6.5692994e-36 -3.0410162e-18 3.042293e-07 3.6405665e-25
2.697435e-22 2.6107176e-27 1.4172727e-15 -4.467193e-24 -0.0007577223 3.357609e-07 -1.36900535e-05 2.809712e-30
-9.494119e-17 -0.077281825 -0.09772059 -0.03728076 0.0048996178 -0.025293961 -0.03320333 -0.025170876
-0.029822538 0.024475547 -0.13709989 0.022777522 -0.072495505 0.057416197 -0.06243766 -0.02590596
0.0476205 0.077065475 0.019722695 -0.02064339 0.011326815 0.060826 -0.09385879 0.006196912
0.01577375 0.010124165 -0.11773145 0.11866769 -0.008506465 0.14657365 -0.001385721 -0.05801339

fc1.bias f4 [128]
00000000: 0419 f4bc e89a 13bd 875d ecbb d0d9 983a
00000010: 70d6 1d3c ee42 f33c ca14 373c 3ec0 aa3c
00000020: 396f a43c b869 82b6 9943 2a3c 727a 963b
00000030: 3ca1 a13c 399c 483c 7520 49b9 62d2 14bd
00000040: f029 0abc 098c d53c 4483 063d 9d0b b0bc
00000050: aa04 7ebb 72aa 3c3c 09db 883c e353 24bc
00000060: f142 6d3c 0086 83ba 9e66 5ebc ea85 173c
00000070: 8b22 e2bc d7ca 24bd 1040 363c b182 503c
00000080: 04ce 163d f058 ff3c b430 f23b bb27 c73c
00000090: e258 953b ebd4 71bc b06a c03b b4b1 a8b9
000000a0: 30fa f83b 1d1a dabc e375 a6bc 3d0c 9ebb
000000b0: 23c7 053d a0b5 14bc 0a6f 96bb 937d 3b3c
000000c0: cdb5 913c 72f2 5c3c 0abc bf3b 83e6 70bc
000000d0: ccbb 8f3c f86f 1d3c d7cb 2bbc b413 58bc
000000e0: 18fa 77bc 2473 45bd 8971 19b8 efda 82ba
000000f0: 21c9 f5bc 88a4 b1bc c91d 01bc d6f5 f53c
00000100: 8c1a b4bc 0a29 393c 0c79 d43c 0db4 bebc
00000110: e387 ff3c bfff 3e3c 9bf0 0b3d 2a0a d1bb
00000120: 73f5 8dbc 97f3 b4bc 5d20 efbc 194c 943c
00000130: 8e86 163d 3b86 c1bb ec71 17bd 6a16 debc
00000140: da7d 123d 833c 9d3c 60df 07bc 863f 9a3b
00000150: 47eb f03c 6040 17bd 33a0 2f3d b771 fcbb
00000160: fe51 ea3b c4a1 4cbb 3c9a 523c 88d7 81b9
00000170: c07b fbbb e312 103a 932f 7cbc c288 f7bb
00000180: dc6e 14bd 3566 77bc 5688 183c 23b2 e0bc
00000190: 2837 093d 6520 86bc 1411 46bc 982c d7bc
000001a0: 102b 713b 3a50 363d c09f 333b ae76 eebc
000001b0: cde3 343d 17f3 2f3d 5a64 21bd 9449 3fbc
000001c0: 7e0d 29bd b0fb 13bb 1c5a b6bc 85f2 bc3c
000001d0: f503 b53c 8d9f 41bd 754b 09bd bf4c 8f3c
000001e0: d222 14bd 4410 043d 7e9d fd3c 6a2c 93bc
000001f0: 196a c93b 00d3 17bb b9d4 083d 3f66 b03c
-0.029797085 -0.036036402 -0.0072132978 0.0011661593 0.009633645 0.029695 0.01117439 0.020843621
0.020072566 -3.886609e-06 0.010392093 0.0045922333 0.019730203 0.012244278 -0.00019180945 -0.03633345
-0.00843285 0.02606775 0.03284003 -0.021489913 -0.0038760104 0.011515247 0.016706007 -0.010029766
0.014481292 -0.0010034442 -0.0135742705 0.009248236 -0.027604362 -0.040232506 0.011123672 0.012726472
0.036817566 0.031170338 0.00739106 0.024310937 0.004557715 -0.014760236 0.005872093 -0.00032175856
0.007598184 -0.02662378 -0.020319885 -0.0048232363 0.032660615 -0.009076506 -0.0045908736 0.011443513
0.017786885 0.013485538 0.0058512734 -0.014703396 0.017545603 0.009609215 -0.010485611 -0.013188291
-0.015135311 -0.04820551 -3.658378e-05 -0.000998346 -0.030003132 -0.0216849 -0.0078806365 0.03002445
-0.021985315 0.011301288 0.025936626 -0.023279214 0.031192726 0.011657654 0.034165006 -0.0063793855
-0.017328953 -0.022088809 -0.029190237 0.018102692 0.036749415 -0.005905894 -0.03697388 -0.027110297
0.035764553 0.019193893 -0.008293003 0.0047072796 0.029409064 -0.036926627 0.042877387 -0.0077039856
0.0071508875 -0.003122435 0.012854155 -0.0002476538 -0.0076746643 0.00054959784 -0.015392202 -0.0075541446
-0.036238536 -0.015100052 0.009309849 -0.027428692 0.033499867 -0.016372869 -0.012089033 -0.026266381
0.003679935 0.044510104 0.002740845 -0.029109325 0.04416256 0.042956438 -0.039402343 -0.011675257
-0.041272633 -0.0022580437 -0.022259764 0.023064861 0.022096613 -0.0472713 -0.033519227 0.01749265
-0.03616602 0.032242075 0.030958887 -0.017965514 0.006146681 -0.0023166537 0.033405993 0.02153313

fc2.weight f4 [11, 128]
00000000: ed62 cc3d 653a 0e3d b9da 013e 5476 973d
00000010: 5ee8 003e f710 ec3d 4ecd 2ebe d6b6 f33c
00000020: 5128 9bbc 42e8 113c 94e6 c0bd 7b43 8fbd
00000030: 030d 34be 2120 bfbd bab9 79bd cec6 fcbc
00000040: d5f9 04be ae4e e4bc 3eef 1c3d 51e3 31be
00000050: 7377 933b 7a3c 5a3e a96e eebd b455 fcbc
00000060: 0aef 07bd bcb9 7cbd 1397 f93d 7ab5 c13d
00000070: 787c 343e 4a54 daba f9f1 263d d1b0 0bbc
00000080: e858 ca3d 7e5d 2f3e abc6 f73d 3859 57bc
00000090: fcd5 123e ed22 ebbd 7d04 063e c26a 713e
000000a0: c5a7 493e 1aae 503e 7cc8 2e3d 82c6 a03c
000000b0: 3987 c03d 9207 823c 620f 693b 10d7 91bd
000000c0: 5c48 a1bd cb99 7abd 22d4 85bc 742b f3bd
000000d0: fe28 e8bd 2b08 f9bb 7376 373b 11bb 91bd
000000e0: 06bf 7a3d 3158 3abd 8541 08be 9841 14ba
000000f0: b1bd 92bd 4645 bebc 31c9 163e 66f4 e6bd
00000100: dedf ef3d 64a3 b1bd 7c4b 003d a6ac 88bd
00000110: bb34 aabd e51d f0bc bc66 873c 196f 493e
00000120: a317 81be 32ed 463d e8e7 a23d d0b2 4bbd
00000130: 8b6f 143d 1d6b 2a3d e019 22be 0326 4bbe
00000140: 7bc4 433e ea13 213d adef 76bd 633c 7fbe
00000150: b3b0 7e3e c51c 97bd bdaa 813c f0ee f1bd
00000160: 897f de3d 247d 503b dae8 35bd b82f e0bd
00000170: 123d c53d aeef 98bd f475 3cbd 5254 d4bd
00000180: f1fa 45bd 20bf ecbc 4571 1cbd 0d70 3abe
00000190: 012b 2a3e fe7d 513e ed8f 5dbe 200d f4bd
000001a0: 9591 03be 074f 0dbe b351 f43c 7675 b0bd
000001b0: d3c6 01bd fa81 563d b4ed f5bd 190b 1ebe
000001c0: 0649 143d 0023 4b3d a926 65be 32b1 42be
000001d0: ef2f 94bd 56bf 583d 6b50 a6be 415c 673d
000001e0: 08c1 263d d19b b9bc 46b6 a0bd 89aa 1a3e
000001f0: 5115 6bbb 5946 83bc f939 123d e35c 0bbd
00000200: 17a4 773d a5b7 9ebe 6e24 883d 1a45 b6bc
00000210: c2b0 603c 3463 103d 0966 483e c39f 923d
00000220: 6c94 58bc a9b9 1ebd 653d 11bd cc66 4bbe
00000230: 8081 10be 8e13 5cbd 5eb1 a0bd ad8b af3d
00000240: 7f90 71be 8797 f0bd 0a0f d4bd 7f60 293c
00000250: bbbd c1bd ecfa 223d 9738 493c 969b 303e
00000260: db23 2c3d b471 583d 5231 76bd 1611 2c3e
00000270: 93a1 7e3d 30ba 99bc 52b9 ce3d cc5b cebc
00000280: eb14 e5bc 75c9 aa3d 16ec 20bc be68 2bbe
00000290: 20b7 d23c c58c 823d 42b1 19bd c689 133e
000002a0: 60aa a1bc 0841 11bc 640d 223d c071 193e
000002b0: af3d b63d d409 50bd f638 223b 73ab ed3d
000002c0: 8b0f bb3b fcdd 72bd d884 9f3d 6e3b e2bb
000002d0: 4bc7 6ebe b8a1 2c3e ea41 273d 4723 d5bd
000002e0: ef44 30be 63d5 94bc 2b54 0d3e c516 59bc
000002f0: 0b21 4abd b037 54be 4410 8ebd 04b8 203e
00000300: c353 ff3d 4675 6a3e 98b8 20bd 9273 d23d
00000310: 98f5 2d3e 2879 6ebd c001 063e 14bf c33d
00000320: 7e6d a33d 6ace 9fbd 3fc9 38bd c58c c3bd
00000330: b258 82bd c427 073c 8e07 90bc e205 99bd
00000340: 8204 a7bd 95d4 5cbd 05e3 aebb 763e 52bd
00000350: ae9b df3c 69dd fe3c 7f21 863d 41c2 cabd
00000360: 2a47 133e 36ea 913d 648a 9b3b 1974 dabd
00000370: 6b46 a7bd 7a89 93bd 4149 1fbe 9017 913d
00000380: ba76 afbd 7a18 343d 6d0d 27be e7a9 f93b
00000390: 14ba f83d 27db e5bc ae5a 723d c25c 823d
000003a0: b990 1d3d 491e 043e 5cc1 823d 2751 563e
000003b0: c163 cabd 5d64 f63d 6651 2ebe f426 823e
000003c0: f8d8 02be 958e b63d 4c10 583d d116 b2bd
000003d0: bb37 81bb 43bf e9bd d44f fb3d 55f2 723d
000003e0: 6f12 9d3d b14c 4fbd f0eb aa3d d84c 1dbe
000003f0: a1dd 243e 6fd3 38bc 3430 6c3d 75c9 21be
0.09979806 0.034723658 0.12681092 0.07395616 0.12588641 0.11526673 -0.17070505 0.029750269
-0.018940123 0.008905472 -0.09418979 -0.06995293 -0.17583089 -0.093323 -0.06096814 -0.030856516
-0.12985928 -0.027869549 0.038314097 -0.1737187 0.0045003234 0.21312132 -0.116422005 -0.030802585
-0.03318695 -0.061700568 0.12187018 0.09458442 0.17625606 -0.00166572 0.040758107 -0.008526043
0.09880239 0.17125508 0.1209844 -0.01314383 0.14339441 -0.11481271 0.1308765 0.23575881
0.19692905 0.20378914 0.042671666 0.019625906 0.09400792 0.01587275 0.0035562147 -0.07121098
-0.078751296 -0.061181825 -0.016336504 -0.118735224 -0.11335944 -0.0075998507 0.0027994185 -0.07115758
0.06121733 -0.045494262 -0.13306244 -0.0005655526 -0.07165087 -0.023226392 0.14725186 -0.11277084
0.11712621 -0.086737424 0.031321988 -0.06673555 -0.08310839 -0.02931113 0.01652848 0.19671287
-0.25213346 0.04856605 0.07954389 -0.049731076 0.03623919 0.041606057 -0.15830183 -0.19838719
0.1911792 0.039325632 -0.060287166 -0.2492538 0.24872093 -0.07378534 0.015828485 -0.11813152
0.10864169 0.003181287 -0.044411518 -0.10946602 0.09630789 -0.0746759 -0.046010926 -0.10367645
-0.04833502 -0.02889973 -0.03819396 -0.18206806 0.16617967 0.20458218 -0.21636935 -0.11916566
-0.12848504 -0.13799678 0.029824113 -0.08616154 -0.031683754 0.05237005 -0.12008229 -0.15433921
0.036202453 0.049593925 -0.22378029 -0.19012907 -0.07235705 0.052916847 -0.3248323 0.056484465
0.040711433 -0.022657307 -0.07847266 0.15104116 -0.003587086 -0.016024755 0.03569982 -0.03402413
0.060459223 -0.30999485 0.066475734 -0.022249747 0.013714017 0.035250857 0.19570173 0.071593784
-0.01321898 -0.038751278 -0.03545894 -0.19863433 -0.141119 -0.053729586 -0.0784633 0.08571563
-0.23590277 -0.117476515 -0.10354431 0.010337948 -0.09460016 0.03979008 0.0122815585 0.17246851
0.042026382 0.05284281 -0.06010563 0.16803393 0.062165808 -0.018765539 0.10093941 -0.025190257
-0.027964076 0.08339206 -0.009821912 -0.16739175 0.025722086 0.06374506 -0.03752256 0.14408025
-0.019734561 -0.008865602 0.03956355 0.14984798 0.08898484 -0.050790623 0.002475319 0.11604967
0.00570864 -0.059293732 0.0778901 -0.006904057 -0.23318212 0.16858566 0.040834345 -0.10407119
-0.17213796 -0.018168157 0.13801639 -0.013250058 -0.04934792 -0.20724368 -0.06936696 0.15695196
0.12467148 0.22896299 -0.039238542 0.102759495 0.16988218 -0.058221012 0.13086605 0.0955793
0.07979868 -0.07803042 -0.0451138 -0.09548334 -0.063645735 0.008249227 -0.017581727 -0.07471825
-0.08155157 -0.05391367 -0.0053371214 -0.0513291 0.027295914 0.031111436 0.065493576 -0.09900332
0.14382616 0.0712475 0.004746722 -0.10666675 -0.08167728 -0.07203956 -0.15555288 0.07084572
-0.08567567 0.043968655 -0.16313715 0.007619131 0.121448666 -0.028058602 0.05916851 0.063653484
0.038468096 0.12902178 0.063845366 0.20929395 -0.09882308 0.120308615 -0.17023239 0.25420344
-0.1277808 0.08913914 0.052749917 -0.08695758 -0.003943411 -0.114134334 0.122710854 0.059313137
0.076695316 -0.050610248 0.08345783 -0.15361345 0.1610017 -0.011280878 0.057663158 -0.15799506

fc2.bias f4 [11]
00000000: 01b3 973a 7418 483d 42f3 5e3c 6bc9 243d
00000010: 7c6a 90bd 1622 2bbc aeb5 323d 5262 953d
00000020: d3b2 7ebd 31a9 0c3d a4ac 43bb
0.0011573733 0.048851445 0.013607802 0.04023115 -0.0705156 -0.010445138 0.043630295 0.07294144
-0.06218226 0.03434104 -0.002985754
