algorithm/OCR/svm/character_22net.pkl (torch_old, 246592 bytes, 10 tensors)

conv1.0.weight f4 [6, 1, 5, 5]
0.08123756 -0.014060708 -0.1021798 -0.042296607 -0.09867922 0.01195216 -0.22026564 0.10762812
-0.111179225 0.07149469 0.017732617 0.1362411 0.0047223624 0.0767989 -0.22673143 0.009997854
0.0039648903 0.035620976 0.09523311 0.032924067 -0.13507502 -0.03828727 -0.0044006454 0.06040017
-0.019100837 0.003714501 -0.033733644 0.035441596 -0.100430414 -0.18759792 -0.052130636 0.0815058
0.115002275 0.030577354 0.22638574 -0.16204706 0.035192337 -0.20038359 0.0007555899 -0.18266274
-0.08163628 -0.015590292 0.11627334 0.10752249 -0.0021124608 0.023301953 -0.000846836 0.12842308
0.170444 -0.05538425 -0.04073681 0.040231176 -0.15054531 0.049187336 0.005308515 -0.020771319
-0.01929714 0.1272824 -0.04258971 -0.03886735 -0.08932007 -0.030451646 -0.03106844 0.037196666
0.046274204 0.14852723 -0.0885134 0.015028139 -0.013753219 -0.17361678 0.093359776 -0.149054
0.019847343 -0.01490355 0.12081755 -0.09385635 0.09603768 -0.078415066 -0.094094545 0.022231853
-0.1315426 -0.18211958 -0.0030060776 0.054769214 0.035602435 0.10615267 -0.12350869 0.0031933633
0.101722874 -0.007334273 0.03700094 -0.10697901 0.015691433 0.032931414 -0.15384744 -0.17144552
-0.031611446 0.05542567 -0.0051694913 0.04144597 0.09189035 0.19181633 0.022933416 0.0015374272
0.013057458 -0.034511086 0.12021709 -0.036983807 -0.033324912 0.1962513 0.064609624 0.120003924
0.026448235 -0.038420253 0.09884936 0.14526705 0.015527082 -0.07641041 0.18638627 0.25967866
0.015216245 0.08058618 0.015823428 -0.017606743 0.073447764 -0.13847561 -0.16649702 0.025102876
-0.10035913 -0.01940163 -0.09421434 0.08903013 -0.04785738 0.022231493 -0.088002495 -0.15836579
0.07017961 -0.1360929 -0.094998464 0.0998229 -0.035589248 0.032949574 0.121209145 0.06059553
0.057856526 -0.2760892 -0.038199823 -0.16558579 0.04444284 0.09735746
00000000: e15f a63d e25e 66bc a543 d1bd 353f 2dbd
00000010: 5518 cabd fed2 433c 518d 61be 226c dc3d
00000020: efb1 e3bd cf6b 923d fe43 913c c982 0b3e
00000030: 0cbe 9a3b be48 9d3d 492c 68be 0ace 233c
00000040: e9eb 813b 4de7 113d 9409 c33d 63db 063d
00000050: 1b51 0abe 1dd3 1cbd 4a33 90bb 2b66 773d
00000060: 5c79 9cbc fc6e 733b 4a2c 0abd 352b 113d
00000070: 76ae cdbd ab19 40be ef86 55bd 83ec a63d
00000080: 5086 eb3d 5c7d fa3c aad1 673e aaef 25be
00000090: d725 103d 5b31 4dbe c812 463a f10b 3bbe
000000a0: ec30 a7bd 6d6e 7fbc b820 ee3d c034 dc3d
000000b0: 3671 0abb bde3 be3c 34fe 5dba 5781 033e
000000c0: df88 2e3e 98da 62bd a4db 26bd 72c9 243d
000000d0: 8d28 1abe a978 493d 0df3 ad3b 9d28 aabc
000000e0: 0915 9ebc 5156 023e 8c72 2ebd 5f33 1fbd
000000f0: 71ed b6bd bb75 f9bc 3e83 febc 885b 183d
00000100: 058a 3d3d 8617 183e 8346 b5bd 9538 763c
00000110: 2e55 61bc 99c8 31be 6933 bf3d 9da1 18be
00000120: e596 a23c 052e 74bc 316f f73d c237 c0bd
00000130: 67af c43d 1498 a0bd a4b4 c0bd 931f b63c
00000140: 1ab3 06be 8e7d 3abe 9d01 45bb af55 603d
00000150: dcd3 113d 9266 d93d 20f2 fcbd bf47 513b
00000160: 1554 d03d 5754 f0bb 4c8e 173d d017 dbbd
00000170: 528b 803c 17e3 063d 2f8a 1dbe 6a8f 2fbe
00000180: 017b 01bd 0706 633d d664 a9bb 40c3 293d
00000190: 0231 bc3d 806b 443e dcde bb3c 7f83 c93a
000001a0: f3ee 553c 7f5b 0dbd 6134 f63d 557c 17bd
000001b0: b47f 08bd 1af6 483e 0d52 843d 9ec4 f53d
000001c0: f8a9 d83c 8e5e 1dbd 8971 ca3d e3c0 143e
000001d0: 4d65 7e3c 107d 9cbd 0bdc 3e3e 9af4 843e
000001e0: 8f4d 793c 5e0a a53d 22a0 813c 043c 90bc
000001f0: c86b 963d 8dcc 0dbe 327e 2abe 8ca4 cd3c
00000200: 1689 cdbd 2bf0 9ebc 73f3 c0bd 6e55 b63d
00000210: 1a06 44bd d21e b63c a73a b4bd a42a 22be
00000220: 54ba 8f3d f05b 0bbe 8e8e c2bd f36f cc3d
00000230: 08c6 11bd 22f6 063d 803c f83d 0533 783d
00000240: f7fa 6c3d 905b 8dbe 6b77 1cbd 528f 29be
00000250: b209 363d 5963 c73d

conv1.0.bias f4 [6]
1.2120674e-05 8.152258e-07 4.447354e-07 6.7514625e-06 -3.5788514e-06 -6.104766e-06
00000000: e659 4b37 e4d5 5a35 f8c3 ee34 9f8a e236
00000010: 332c 70b6 8ad7 ccb6

conv2.0.weight f4 [16, 6, 5, 5]
-0.099878825 -0.018101675 0.011742376 -0.09527448 -0.022863317 -0.038758114 -0.05176611 -0.085172884
0.023891227 -0.021481445 0.021643981 0.07290984 -0.03725713 0.017896626 0.023506999 -0.12032025
0.010730019 -0.020099107 0.0490233 -0.06103395 0.033297915 0.015430106 0.03532963 -0.13446352
-0.061094742 -0.11038524 0.00679262 0.047199093 0.19883607 0.009042106 0.02766896 0.062165014
0.090313844 0.01897713 -0.08296828 0.026313476 0.014970413 0.07776981 -0.007665179 -0.06083247
-0.07579167 -0.04728332 -0.05732209 -0.067194 -0.049487624 -0.041677568 0.04863603 0.07403824
0.02309752 0.0049062734 0.022069378 0.011303696 -0.0094659515 -0.01426086 0.020039238 0.03471351
0.009044194 0.04439479 0.13368586 0.05908441 -0.0016711392 -0.061926644 -0.060001325 0.032859746
-0.059537787 0.010325507 0.006919201 0.05261917 0.07575317 -0.033027183 0.022730041 0.049871154
0.0017405951 0.0071342033 -0.033171758 -0.06701127 -0.023325093 0.011310178 0.029316884 0.025922038
0.0056257485 -0.014637085 -0.042136103 0.0107166 -0.00029205487 -0.08090602 0.040288035 0.090588994
0.049034126 0.043649387 0.015984302 0.008692929 0.021233076 -0.07117249 0.019379105 0.040602636
-0.104530774 -0.08092902 0.008986461 0.03773347 0.0031671857 -0.019853089 -0.056457542 0.037790872
0.06003923 0.08764773 0.0008645096 -0.016114395 0.042768292 0.01554726 0.03397797 0.062378716
0.03382245 -0.01461019 0.0107800495 0.08324261 0.010705519 0.038004283 0.09957222 0.029080195
-0.02262028 0.010235368 -0.047179174 0.036965616 -0.059662808 -0.06856163 0.046941373 -0.076197095
0.047625612 0.018697586 0.058206867 -0.014107189 -0.0053471522 -0.0013154777 -0.07654118 -0.017366244
0.043708634 -0.059228342 -0.016609324 -0.121749714 0.022243682 -0.024945816 0.123652525 0.0068470226
0.052504174 0.07315957 -0.07608489 -0.029849473 -0.045441493 0.029695686 0.038384188 0.036529392
-0.0793038 0.06713547 0.076912425 -0.06586877 0.10735037 0.06488645 -0.12586078 0.069406524
0.05186924 0.032103036 -0.06399023 -0.06201061 0.089985706 -0.0031838275 0.011598294 0.040384825
0.07989482 -0.01269522 -0.03640389 0.06794435 -0.06947104 -0.031924527 0.010316644 0.013345445
-0.0049144956 -0.037443724 0.10852902 0.011650721 0.16999282 -0.04430478 -0.03181824 -0.03271368
-0.015968205 -0.055666063 -0.020776061 0.08827504 0.025325054 -0.13750526 0.07318979 0.02132998
0.019098954 0.063720405 -0.0021719174 0.020128934 0.07761668 0.015306189 0.008356962 -0.009676317
0.05700005 -0.07068104 -0.040542547 -0.07129927 -0.036736906 0.06257979 -0.0046500047 0.077374116
0.02780491 -0.13424768 0.100962296 0.026598196 0.011759249 0.07176339 -0.024029963 -0.028114758
-0.035155453 -0.06310845 0.05208074 0.0042052073 -0.022374872 0.03095414 0.031193966 -0.19116054
0.11117115 0.034978796 -0.054655995 -0.03378024 0.017806206 0.036693923 0.06294261 0.0023281507
-0.03766924 0.09080699 -0.0073169596 -0.04515051 -0.00024052676 -0.024736699 -0.09780267 0.007453141
-0.02193026 -0.011036691 -0.14562349 -0.04355105 0.048455726 0.021290446 0.0070632934 0.012126645
-0.0049082115 -0.030125475 0.047074385 -0.025517792 0.0063893637 -0.07199051 -0.08654134 0.011939985
00000000: 458d ccbd f749 94bc 1863 403c 441f c3bd
00000010: da4b bbbc d4c0 1ebd b308 54bd 1f6f aebd
00000020: 89b7 c33c dbf9 afbc b84e b13c c151 953d
00000030: ef9a 18bd f29b 923c c091 c03c 776a f6bd
00000040: f6cc 2f3c e2a6 a4bc a8cc 483d bcfe 79bd
00000050: 6563 083d 8ece 7c3c cdb5 103d ceb0 09be
00000060: 7b3e 7abd a811 e2bd a094 de3b d653 413d
00000070: af9b 4b3e 5725 143c 04aa e23c bea0 7e3d
00000080: 77f6 b83d ed75 9b3c 46eb a9bd 5c8f d73c
00000090: 7746 753c c745 9f3d 2f2c fbbb 782b 79bd
000000a0: aa38 9bbd 28ac 41bd 91ca 6abd 029d 89bd
000000b0: 89b3 4abd 19b6 2abd 9336 473d 5ca1 973d
000000c0: 0337 bd3c cec4 a03b d7ca b43c 2333 393c
000000d0: 1417 1bbc 62a6 69bc 5429 a43c c12f 0e3d
000000e0: 192e 143c 50d7 353d f2e4 083e 7f02 723d
000000f0: 200a dbba cba6 7dbd f3c3 75bd f197 063d
00000100: e5dd 73bd 512c 293c 77ba e23b 3387 573d
00000110: 7a24 9b3d 8347 07bd 5a34 ba3c b245 4c3d
00000120: ae24 e43a 09c6 e93b 1cdf 07bd 343d 89bd
00000130: 4414 bfbc 534e 393c f629 f03c 745a d43c
00000140: 3358 b83b 62d0 6fbc e896 2cbd ae94 2f3c
00000150: f11e 99b9 0eb2 a5bd 1105 253d b986 b93d
00000160: 02d8 483d b3c9 323d 83f1 823c c96c 0e3c
00000170: fdf0 ad3c e2c2 91bd eec0 9e3c f34e 263d
00000180: 3b14 d6bd 1dbe a5bd f33b 133c 698e 1a3d
00000190: 8f90 4f3b f2a2 a2bc 0640 67bd 9aca 1a3d
000001a0: b2eb 753d a780 b33d 42a0 623a 5602 84bc
000001b0: ce2d 2f3d efb9 7e3c 7c2c 0b3d d380 7f3d
000001c0: 6989 0a3d 945f 6fbc ce9e 303c 1a7b aa3d
000001d0: 3366 2f3c 61aa 1b3d 85ec cb3d 9739 ee3c
000001e0: 2a4e b9bc 3fb2 273c f33e 41bd 4269 173d
000001f0: fd60 74bd 0a6a 8cbd 9945 403d 390d 9cbd
00000200: 1313 433d ae2b 993c 536a 6e3d d721 67bc
00000210: 2a37 afbb 1b6c acba 9fc1 9cbd a743 8ebc
00000220: d307 333d 6b99 72bd 4710 88bc ea57 f9bd
00000230: 6238 b63c 2b5b ccbc 893d fd3d fd5c e03b
00000240: 9e0e 573d afd4 953d 65d2 9bbd e286 f4bc
00000250: dc20 3abd 5e44 f33c bd38 1d3d d89f 153d
00000260: 086a a2bd 527e 893d 4384 9d3d 35e6 86bd
00000270: 83da db3d 30e3 843d a6e1 00be 0225 8e3d
00000280: d774 543d 797e 033d 4f0d 83bd d6fe 7dbd
00000290: 6d4a b83d c3a7 50bb c506 3e3c 8f6a 253d
000002a0: e59f a33d 9dff 4fbc 3f1c 15bd 6826 8b3d
000002b0: d546 8ebd 4bc3 02bd 2407 293c daa6 5a3c
000002c0: c709 a1bb 975e 19bd 7644 de3d aae2 3e3c
000002d0: 9912 2e3e ee78 35bd d853 02bd c8fe 05bd
000002e0: c1cf 82bc 1902 64bd 8f32 aabc 8bc9 b43d
000002f0: 7d76 cf3c 2ece 0cbe 87e4 953d 36bc ae3c
00000300: 6975 9c3c d87f 823d ba56 0ebb 6fe5 a43c
00000310: 7ef5 9e3d cfc6 7a3c a4eb 083c 6a89 1ebc
00000320: e278 693d 39c1 90bd f10f 26bd 5a05 92bd
00000330: 7079 16bd d529 803d 115f 98bb 5276 9e3d
00000340: 1fc7 e33c 3978 09be 52c5 ce3d 76e4 d93c
00000350: dda9 403c aff8 923d 7cda c4bc ec50 e6bc
00000360: 2aff 0fbd 013f 81bd 9d52 553d d6cb 893b
00000370: 824b b7bc 8993 fd3c 7d8a ff3c 97bf 43be
00000380: b3ad e33d ed45 0f3d f7de 5fbd 265d 0abd
00000390: 52de 913c 5e4c 163d 0ee8 803d e393 183b
000003a0: 104b 1abd 04f9 b93d 1bc3 efbb beef 38bd
000003b0: e935 7cb9 9ea4 cabc c44c c8bd 7a39 f43b
000003c0: 17a7 b3bc 3dd3 34bc 531e 15be 9662 32bd
000003d0: 8379 463d 4d69 ae3c 3373 e73b d6ae 463c
000003e0: 10d5 a0bb b3c9 f6bc 12d1 403d b00a d1bc
000003f0: de5d d13b c36f 93bd 963c b1bd ed9f 433c

conv2.0.bias f4 [16]
-3.033787e-06 1.5589292e-05 -9.976396e-06 4.2801353e-06 -3.9455063e-06 1.1769205e-05 -1.8902218e-05 0.0
-1.5034312e-05 -2.5629943e-05 7.7386285e-06 -1.6490815e-06 -1.1404968e-06 0.0 1.4095089e-08 -2.1553583e-06
00000000: 1098 4bb6 c0c5 8237 4b60 27b7 159e 8f36
00000010: a463 84b6 5a74 4537 3490 9eb7 0000 0000
00000020: e13b 7cb7 e2ff d6b7 28d5 0137 0256 ddb5
00000030: 2c13 99b5 0000 0000 db26 7232 c6a4 10b6

fc1.0.weight f4 [120, 400]
0.088060446 -0.09140944 -0.04490216 -0.016515508 0.004215521 -0.030781148 0.009516865 -0.07048657
0.10674718 0.15847614 0.049763422 0.010555885 0.03642803 0.040771488 -0.0019303818 -0.017944727
0.057420906 -0.09488705 0.061023004 -0.036141854 -0.052851338 -0.021229539 0.065872476 -0.0020277707
0.118964255 -0.05045579 -0.026608165 -0.09133524 -0.005635091 -0.02696748 -0.019511586 -0.17152904
-0.047206774 0.09789342 0.024587682 -0.023027686 -0.09177775 -0.051760186 0.054219566 0.052767072
-0.10990565 0.15809204 0.15255783 -0.033211775 -0.13226187 -0.11016211 -0.06526576 0.0020925151
-0.114024006 -0.025605656 -0.02900829 0.041651707 0.054187533 -0.042990066 0.04965825 0.024505373
-0.033677433 0.02025127 0.06279055 0.013834517 -0.006340919 0.014664665 -0.098741665 -0.14680994
-0.06321632 -0.12390815 0.035345554 0.11540466 -0.06297066 -0.009802781 0.03472182 -0.00026330719
0.00039913444 -0.057799853 -0.063451745 0.023431294 -0.074390836 -0.0013585389 0.07299819 -0.063627645
0.047420945 -0.008795661 -0.07172914 0.013907683 0.025982147 0.07001744 0.0061155674 0.02525844
0.038535267 -0.08523625 0.078552686 -0.0660542 -0.014041169 -0.035434857 -0.09782206 0.055081487
-0.12924759 -0.05264556 -0.060625877 -0.057510916 0.032515764 0.07216822 0.02720618 0.04722142
-0.035235677 -0.098273896 -0.036170274 -0.0743465 -0.01731045 -0.05571948 -0.03137917 -0.07174631
0.14419325 0.022474471 -0.04561791 0.04526787 0.101389825 0.027535506 -0.059071254 0.097268775
-0.039876863 -0.09458397 0.023940658 -0.046273213 -0.04792853 -0.044163324 -0.00016037871 -0.025074715
0.032690924 0.013197162 -0.09925645 -0.0447017 0.01853006 0.014020354 0.09532619 -0.0016345342
-0.0123534715 0.079509445 0.018879086 -0.11725538 0.007955683 0.058208603 0.11772342 0.03356782
0.06310214 0.038851812 0.060407043 0.061107088 -0.0017655456 0.037507586 0.08014671 0.0011690423
-0.0049160006 0.03882215 -0.016543673 -0.075649776 0.012253352 0.012746701 -0.006679036 -0.035937324
0.046943557 -0.12196247 0.035310257 -0.035824623 -0.028169349 0.1742699 -0.06972446 -0.00039007372
-0.05949296 0.06725207 0.045702133 0.024502689 -0.025266705 0.057569504 0.041444886 0.024982283
0.089969836 -0.069812536 0.07355263 -0.051116813 -0.050180145 -0.06506143 0.019206492 -0.033480167
-0.114444 -0.040389948 0.0355481 -0.054278117 0.046138324 0.019382017 -0.026331834 -0.017105157
0.03978922 -0.04220081 -0.05813598 -0.07200586 -0.06281571 -0.000230934 -0.017234309 -0.008490872
0.060224343 -0.06321146 0.029591333 -0.030728038 0.061981 0.05793861 -0.15858528 0.018245807
-0.20573847 -0.029256374 0.006505217 0.12319343 0.08003056 0.026367623 0.06836546 0.03047378
-0.02032135 -0.010682732 -0.015854066 0.044371955 0.04988515 -0.052198883 0.04218364 0.06540601
0.095781505 0.040382326 0.027968599 0.07057022 0.030459862 0.024774915 0.000408005 -0.01239854
0.067262635 0.04766286 0.04557588 -0.036173932 0.0007272905 0.030498544 -0.08158961 -0.079643324
-0.036064286 -0.017514009 0.04517835 0.015292538 -0.05067723 0.015082843 -0.047409646 0.035283934
0.022175504 0.10075004 0.057858508 0.06881379 -0.03061434 0.085616 0.06280369 0.017406791
00000000: 0959 b43d df34 bbbd 54eb 37bd 884b 87bc
00000010: 5a22 8a3b bf28 fcbc a0ec 1b3c 435b 90bd
00000020: 449e da3d 9247 223e bbd4 4b3d 97f2 2c3c
00000030: 8f35 153d 0100 273d dd04 fdba d200 93bc
00000040: 2f32 6b3d 2454 c2bd 42f3 793d 7b09 14bd
00000050: a57a 58bd 92e9 adbc 26e8 863d 59e4 04bb
00000060: 88a3 f33d bbaa 4ebd 5ef9 d9bc f80d bbbd
00000070: 92a6 b8bb e8ea dcbc c3d6 9fbc 4fa5 2fbe
00000080: e45b 41bd 587c c83d 1b6c c93c 8fa4 bcbc
00000090: f9f5 bbbd 7d02 54bd 5615 5e3d 4922 583d
000000a0: 3716 e1bd e1e2 213e 1f38 1c3e 1209 08bd
000000b0: a86f 07be ac9c e1bd 0eaa 85bd 9422 093b
000000c0: 6b85 e9bd f4c2 d1bc cba2 edbc fb9a 2a3d
000000d0: bff3 5d3d 5a16 30bd 7366 4b3d 7ebf c83c
000000e0: 59f1 09bd fee5 a53c 5598 803d 2caa 623c
000000f0: 7cc7 cfbb 1044 703c 1239 cabd 5855 16be
00000100: 8f77 81bd 8ec3 fdbd 80c6 103d 4759 ec3d
00000110: c3f6 80bd d89b 20bc 7838 0e3d 7e0c 8ab9
00000120: eb42 d139 8abf 6cbd fdf2 81bd fcf2 bf3c
00000130: 395a 98bd 0011 b2ba 1380 953d 364f 82bd
00000140: 773c 423d ad1b 10bc bae6 92bd 0ddd 633c
00000150: 83d8 d43c 4e65 8f3d 1965 c83b caea ce3c
00000160: 28d7 1d3d 5890 aebd 3be0 a03d 6d47 87bd
00000170: ee0c 66bc 2424 11bd ef56 c8bd 209d 613d
00000180: 7b59 04be dfa2 57bd d752 78bd 9190 6bbd
00000190: 402f 053d efcc 933d 7fdf de3c 3f6b 413d
000001a0: 4953 10bd d343 c9bd 4827 14bd fa42 98bd
000001b0: a5ce 8dbc 1c3a 64bd 7287 00bd bbef 92bd
000001c0: 65a7 133e 621c b83c d8d9 3abd cd6a 393d
000001d0: 78a5 cf3d 2492 e13c b3f4 71bd da34 c73d
000001e0: ec55 23bd 3eb5 c1bd 331f c43c fb88 3dbd
000001f0: b550 44bd 9ae4 34bd 552b 28b9 7d69 cdbc
00000200: ebe6 053d e938 583c f746 cbbd 2119 37bd
00000210: 5acc 973c a0b5 653c 613a c33d de3d d6ba
00000220: 3766 4abc d9d5 a23d 50a8 9a3c 9723 f0bd
00000230: 8e58 023c 256c 6e3d fa18 f13d 697e 093d
00000240: b23b 813d 1423 1f3d 606d 773d 6d4b 7a3d
00000250: e169 e7ba 8ea1 193d f523 a43d 8d3a 993a
00000260: 6716 a1bb fa03 1f3d 9986 87bc 45ee 9abd
00000270: 49c2 483c 8ad7 503c d1db dabb 0433 13bd
00000280: e347 403d 76c7 f9bd 7da1 103d d7bc 12bd
00000290: 68c3 e6bc cf73 323e b3cb 8ebd cf82 ccb9
000002a0: e4ae 73bd 74bb 893d 2932 3b3d ddb9 c83c
000002b0: 1ffc cebc 00ce 6b3d 1dc2 293d a5a7 cc3c
000002c0: 1b42 b83d e0f9 8ebd c3a2 963d dd5f 51bd
000002d0: b289 4dbd ed3e 85bd ef56 9d3c 8022 09bd
000002e0: 9e61 eabd ee6f 25bd e29a 113d bb52 5ebd
000002f0: 8afb 3c3d 09c7 9e3c dcb5 d7bc 1d20 8cbc
00000300: 05fa 223d c2da 2cbd fe1f 6ebd cf77 93bd
00000310: 86a5 80bd e026 72b9 f72e 8dbc 4c1d 0bbc
00000320: cdad 763d 0375 81bd 8669 f23c 5eb9 fbbc
00000330: cadf 7d3d 0951 6d3d 2e64 22be 3b78 953c
00000340: 1bad 52be 10ab efbc b729 d53b d64c fc3d
00000350: 10e7 a33d ea00 d83c 3103 8c3d 26a4 f93c
00000360: f678 a6bc a006 2fbc 63e0 81bc 5ebf 353d
00000370: 5f54 4c3d 7fce 55bd c1c8 2c3d 96f3 853d
00000380: 1829 c43d f067 253d 671e e53c 1f87 903d
00000390: f686 f93c c3f4 ca3c 81e9 d539 3f23 4bbc
000003a0: fec0 893d 223a 433d c6ad 3a3d 1e2b 14bd
000003b0: a4a7 3e3a 15d8 f93c 7418 a7bd 0a1c a3bd
000003c0: 25b8 13bd 8a79 8fbc ef0c 393d 8e8d 7a3c
000003d0: ed92 4fbd 071e 773c 9e30 42bd e385 103d
000003e0: 67a9 b53c 0956 ce3d 0bfd 6c3d 3fee 8c3d
000003f0: edca fabc 7157 af3d 399f 803d b098 8e3c

fc1.0.bias f4 [120]
1.5070727e-06 1.3909691e-06 1.0791871e-05 -7.658792e-06 0.0 1.3764339e-06 -4.539242e-06 2.862012e-06
0.0 -4.169438e-06 0.0 3.8063965e-06 -1.1276882e-06 3.3150639e-07 3.3717718e-06 0.0
0.0 5.498088e-06 0.0 4.0454956e-06 3.1831394e-06 -4.435476e-06 6.248324e-06 3.9114735e-07
-6.196362e-06 -2.0322743e-06 -2.18435e-06 8.215617e-07 0.0 7.5071415e-07 0.0 3.516568e-06
0.0 -5.1728407e-06 -8.969576e-07 0.0 0.0 0.0 -7.1710456e-06 4.959312e-06
0.0 6.928711e-06 0.0 -5.3524755e-06 -9.431051e-06 -4.2733627e-06 -3.6745575e-06 -6.9564153e-06
0.0 -1.8691848e-09 6.9405255e-06 0.0 -1.8605031e-06 7.9099965e-16 3.707903e-06 0.0
0.0 4.8268525e-06 0.0 5.9826193e-06 -4.326742e-06 -7.1629256e-06 7.929732e-08 0.0
-1.2251119e-06 0.0 0.0 0.0 -3.863193e-06 -1.8383857e-06 -7.2069124e-06 0.0
8.352144e-06 0.0 0.0 1.54629e-05 -2.0592076e-06 0.0 3.1189961e-06 1.5202763e-06
-1.6983903e-06 0.0 -4.9808914e-06 0.0 8.975748e-07 3.0032554e-06 -3.9925726e-06 -1.5160201e-07
1.9379986e-06 0.0 1.2276654e-07 0.0 -1.8551721e-06 9.452903e-06 -1.7328434e-06 0.0
-3.7339537e-06 -1.4343665e-06 -3.7595464e-06 1.6355248e-06 7.989931e-06 1.6750212e-07 0.0 4.3435267e-07
-2.6278094e-06 -7.89477e-06 -1.1406217e-05 -1.2105078e-05 -6.5028344e-06 0.0 0.0 0.0
-3.7293214e-06 -4.422099e-06 0.0 5.1637624e-08 -4.929354e-06 3.2756515e-07 1.4372883e-09 0.0
00000000: a046 ca35 56b1 ba35 bc0e 3537 437e 00b7
00000010: 0000 0000 e9bd b835 cb4f 98b6 fe10 4036
00000020: 0000 0000 33e7 8bb6 0000 0000 6571 7f36
00000030: 125b 97b5 e4f9 b134 9946 6236 0000 0000
00000040: 0000 0000 377c b836 0000 0000 8bbe 8736
00000050: eb9d 5536 73d4 94b6 b2a8 d136 e2fe d134
00000060: 58ea cfb6 3562 08b6 d996 12b6 4a89 5c35
00000070: 0000 0000 af84 4935 0000 0000 2efe 6b36
00000080: 0000 0000 5d92 adb6 75c6 70b5 0000 0000
00000090: 0000 0000 0000 0000 d09e f0b6 2a68 a636
000000a0: 0000 0000 2d7d e836 0000 0000 6a99 b3b6
000000b0: 0e3a 1eb7 e863 8fb6 6b98 76b6 276b e9b6
000000c0: 0000 0000 0c73 00b1 a9e2 e836 0000 0000
000000d0: 66b6 f9b5 79fd 6326 4ad5 7836 0000 0000
000000e0: 0000 0000 59f6 a136 0000 0000 4fbe c836
000000f0: 6e2e 91b6 1059 f0b6 2a4a aa33 0000 0000
00000100: 866e a4b5 0000 0000 0000 0000 0000 0000
00000110: 93a0 81b6 74be f6b5 e8d2 f1b6 0000 0000
00000120: 2f20 0c37 0000 0000 0000 0000 53b6 8137
00000130: eb30 0ab6 0000 0000 f24f 5136 4c0c cc35
00000140: 3ff4 e3b5 0000 0000 8821 a7b6 0000 0000
00000150: dff0 7035 898b 4936 f0f7 85b6 0bc8 22b4
00000160: 900e 0236 0000 0000 cfd1 0334 0000 0000
00000170: 3aff f8b5 e997 1e37 0c94 e8b5 0000 0000
00000180: d694 7ab6 7584 c0b5 844c 7cb6 3484 db35
00000190: 7e0c 0637 a2da 3334 0000 0000 fa30 e934
000001a0: 6c59 30b6 c773 04b7 545d 3fb7 ea16 4bb7
000001b0: ec32 dab6 0000 0000 0000 0000 0000 0000
000001c0: 4145 7ab6 8b61 94b6 0000 0000 2bc8 5d33
000001d0: d466 a5b6 36dc af34 168a c530 0000 0000

fc2.0.weight f4 [84, 120]
-0.1117358 0.07841059 0.18397632 -0.09965075 -0.17575921 0.009739031 -0.005674723 0.09356836
-0.15487023 -0.08337612 0.115588926 0.06583456 -0.104455456 0.058184322 0.1455327 -0.048967626
-0.025828965 -0.2411478 -0.17051828 0.07763735 -0.30302122 0.03619918 0.05446466 0.10022834
0.10454016 -0.06833776 0.001071168 0.09200166 0.05277521 -0.11936916 -0.082048595 -0.0023492055
0.034920253 0.0022180888 0.027614912 0.03701488 -0.107993424 0.20741169 0.054244988 -0.091725215
-0.0016093786 -0.14956947 0.08423763 0.04949486 0.0007180986 0.13220835 -0.006980826 0.04132494
0.093029074 0.10813214 0.07140808 0.11057151 -0.098384954 -0.2873406 -0.0109227 0.08470847
0.05116289 0.06555175 0.13035905 -0.11857532 -0.07067909 -0.05820157 -0.05167824 -0.14237083
0.09423221 0.09917155 -0.14596441 -0.029575633 0.081361055 -0.04917451 0.13273513 0.0037078613
-0.028976666 -0.22068033 0.022059083 -0.039849102 0.088333346 0.16458493 0.034686394 0.14855383
-0.011428511 -0.08071024 -0.21097468 -0.06877371 0.038737897 -0.11640701 0.11424175 -0.097275086
0.043194525 -0.025768807 0.13803148 -0.14597441 0.031690266 -0.08620465 -0.0128330225 -0.1762025
0.07472853 0.11605666 0.078574866 0.03171546 0.05511653 -0.039871894 -0.016099416 0.070867725
-0.024362767 0.17692596 0.09613399 0.10233536 -0.08439236 -0.0772163 -0.123994924 -0.029934471
-0.06653345 -0.01573242 0.12681878 0.08571123 0.006536062 0.031289235 -0.03550187 -0.026661664
0.040779434 0.12990184 -0.26644558 -0.039715044 0.0628072 0.057529572 0.17021357 -0.009240453
-0.004608509 0.101065904 0.017283186 0.074593544 -0.006161763 0.08994998 -0.15181558 0.19537356
0.03972855 -0.10523482 0.14757815 0.028658662 0.07046535 -0.03858414 0.16073008 -0.060566057
-0.011124433 0.029747548 0.09433076 0.101169385 0.111356825 -0.014794392 -0.13624273 -0.18279213
0.24005197 0.19701383 0.006772885 -0.0898304 -0.042651553 0.014607124 0.18776026 -0.03917722
-0.096934095 -0.07348796 -0.07255219 0.08576306 0.038829517 0.021318778 -0.002627312 -0.123676375
-0.017213302 -0.14043574 0.09950612 0.011286395 -0.037831064 0.20320573 -0.16333483 -0.18219587
0.087268636 0.07521923 0.16956002 0.04638852 -0.042101018 -0.01595657 -0.2513516 0.05254927
-0.10764429 -0.11386173 -0.14035101 -0.20492904 -0.1380924 0.04312279 -0.037383918 0.07922068
-0.03328481 -0.030151725 -0.20995633 -0.27536893 -0.07293856 -0.045021143 0.15482897 -0.0042489804
0.22278602 -0.2324873 -0.08613236 0.13142435 -0.052862994 -0.07345409 0.044900805 -0.06870198
0.10166466 -0.015218211 0.018515078 -0.1050166 -0.15354173 0.010701977 0.21218492 0.18190019
-0.12374931 -0.085438184 0.010661345 0.18848178 -0.004327974 -0.022295762 -0.08997107 0.037533607
0.11107414 0.14315504 -0.008071747 0.0865152 -0.08319365 -0.13055281 0.16691747 0.14516594
0.05464228 -0.12165994 -0.028140023 0.15122946 0.030633796 -0.003305119 0.016971054 -0.08679509
0.13015914 0.10499461 -0.0038897193 -0.047891144 0.14189893 -0.21822539 0.03293683 0.052770156
-0.07690375 0.05065941 -0.03725421 0.014440254 -0.006414909 -0.15611942 0.0075020497 0.041220035
00000000: bdd5 e4bd bb95 a03d 4a64 3c3e b115 ccbd
00000010: 39fa 33be 7590 1f3c 07f3 b9bb c5a0 bf3d
00000020: 4d96 1ebe 19c1 aabd e3b9 ec3d 45d4 863d
00000030: beec d5bd af52 6e3d 8606 153e 4792 48bd
00000040: 4497 d3bc 73ef 76be 589c 2ebe 5500 9f3d
00000050: 9925 9bbe 9745 143d 5616 5f3d 8444 cd3d
00000060: 2719 d63d abf4 8bbd 6f66 8c3a 5e6b bc3d
00000070: d22a 583d d177 f4bd 1809 a8bd 21f5 19bb
00000080: 8a08 0f3d 5b5d 113b ab38 e23c ea9c 173d
00000090: a82b ddbd bb63 543e fe2f 5e3d 6eda bbbd
000000a0: c9f1 d2ba bd28 19be c784 ac3d 1fbb 4a3d
000000b0: c83e 3c3a a061 073e 6abf e4bb 5744 293d
000000c0: 0786 be3d 6274 dd3d 663e 923d 5173 e23d
000000d0: 0d7e c9bd 4f1e 93be 20f5 32bc a27b ad3d
000000e0: 2e90 513d ff3f 863d d87c 053e 9ed7 f2bd
000000f0: 33c0 90bd c564 6ebd 90ac 53bd a9c9 11be
00000100: d1fc c03d 741a cb3d b277 15be 9948 f2bc
00000110: a0a0 a63d 366b 49bd b8eb 073e 97ff 723b
00000120: 7960 edbc 06fa 61be 40b5 b43c d038 23bd
00000130: 1de8 b43d f488 283e 5213 0e3d 7f1e 183e
00000140: a63e 3bbc 694b a5bd bf09 58be 3bd9 8cbd
00000150: a1ab 1e3d cc66 eebd 94f7 e93d 2938 c7bd
00000160: beec 303d 1b19 d3bc 2058 0d3e 517a 15be
00000170: a7cd 013d 108c b0bd 9941 52bc 6e6e 34be
00000180: 460b 993d 1daf ed3d dceb a03d 12e8 013d
00000190: dfc1 613d b650 23bd ece2 83bc 1923 913d
000001a0: 6d94 c7bc 142c 353e e6e1 c43d 3495 d13d
000001b0: e7d5 acbd 9423 9ebd 0df1 fdbd 2339 f5bc
000001c0: b042 88bd 47e1 80bc c8dc 013e 5f89 af3d
000001d0: 762c d63b 2429 003d 696a 11bd 9069 dabc
000001e0: 5608 273d fd04 053e 8e6b 88be 3eac 22bd
000001f0: 10a1 803d 21a4 6b3d 774c 2e3e 4565 17bc
00000200: fa02 97bb a4fb ce3d 7895 8d3c 80c4 983d
00000210: 9de8 c9bb b237 b83d 8b75 1bbe 0210 483e
00000220: 67ba 223d 5a85 d7bd ba1e 173e 92c5 ea3c
00000230: 2350 903d 670a 1ebd 6d96 243e 1d14 78bd
00000240: 4143 36bc 21b1 f33c 7c30 c13d e531 cf3d
00000250: 0c0f e43d 2d64 72bc 3783 0bbe dc2d 3bbe
00000260: 2fd0 753e febd 493e 14ef dd3b 00f9 b7bd
00000270: 65b3 2ebd b852 6f3c 3a44 403e 4b78 20bd
00000280: 6285 c6bd db80 96bd 3e96 94bd 8ba4 af3d
00000290: b30b 1f3d b8a4 ae3c fb2e 2cbb 0a4a fdbd
000002a0: e902 8dbc 63ce 0fbe ddc9 cb3d 92ea 383c
000002b0: bff4 1abd 2a15 503e 3f41 27be 8e91 3abe
000002c0: e6b9 b23d 8a0c 9a3d 24a1 2d3e e401 3e3d
000002d0: 1e72 2cbd 5ab7 82bc 28b1 80be e73d 573d
000002e0: 9c74 dcbd 5730 e9bd 2db8 0fbe ebd8 51be
000002f0: 1868 0dbe 86a1 303d e11f 19bd 743e a23d
00000300: a755 08bd c000 f7bc cbfe 56be 28fd 8cbe
00000310: d060 95bd 1768 38bd 7c8b 1e3e 083b 8bbb
00000320: 0522 643e 2711 6ebe 2a66 b0bd 1b94 063e
00000330: de86 58bd 196f 96bd e8e9 373d a0b3 8cbd
00000340: 9035 d03d ce55 79bc efac 973c f112 d7bd
00000350: 0b3a 1dbe 5857 2f3c 0147 593e 0b44 3a3e
00000360: 4770 fdbd 37fa aebd ecac 2e3c 5e01 413e
00000370: add1 8dbb 9aa5 b6bc c142 b8bd d7bc 193d
00000380: d77a e33d 3c97 123e 5c3f 04bc e22e b13d
00000390: 6f61 aabd a3af 05be 6aec 2a3e 61a6 143e
000003a0: 95d0 5f3d d928 f9bd e885 e6bc e5db 1a3e
000003b0: baf3 fa3c b29a 58bb e106 8b3c a0c1 b1bd
000003c0: 7048 053e 6a07 d73d a9ea 7ebb 8129 44bd
000003d0: f44d 113e 7a76 5fbe c5e8 063d 8525 583d
000003e0: b77f 9dbd 3e80 4f3d df97 18bd d196 6c3c
000003f0: 2834 d2bb c5dd 1fbe c1d3 f53b 57d6 283d

fc2.0.bias f4 [84]
-1.08830645e-05 -5.8000305e-06 -9.353941e-06 3.2014277e-06 0.0 4.041727e-06 -9.423109e-07 4.302497e-06
0.0 4.12069e-06 -1.0836118e-05 -3.9590768e-07 8.235623e-06 0.0 0.0 -2.3570906e-06
0.0 -1.8183778e-07 5.5681307e-06 -8.770656e-07 -5.091741e-06 -8.068956e-06 -1.3706291e-06 -2.942873e-06
-9.482499e-06 0.0 0.0 -5.9900947e-07 8.618449e-06 2.5499807e-07 0.0 -2.2249491e-05
0.0 -1.0316062e-05 -4.1166318e-06 -5.001971e-06 -5.499832e-08 -7.0295005e-06 1.5582863e-06 0.0
-6.7122983e-06 -2.2015483e-06 -8.48689e-06 -1.402858e-05 1.1948275e-05 5.271802e-06 -1.0630073e-05 5.5111846e-06
1.594074e-05 0.0 -9.908075e-06 0.0 1.158222e-05 -8.988257e-08 1.5357506e-06 0.0
-1.5570398e-06 6.079365e-06 -1.713412e-13 1.26101795e-05 0.0 0.0 1.1133196e-05 0.0
-4.3255358e-07 2.3194686e-06 -1.2675944e-05 3.5681594e-06 -1.1007065e-05 8.163565e-06 1.3070508e-07 0.0
1.3833492e-05 5.6945883e-06 0.0 -1.1120575e-05 9.566633e-14 -1.0089883e-05 1.1070436e-05 1.7061179e-06
0.0 -5.4471496e-07 3.0093504e-06 4.7126314e-06
00000000: 6896 36b7 e29d c2b6 dfee 1cb7 1cd8 5636
00000010: 0000 0000 2c9e 8736 1df3 7cb5 2b5e 9036
00000020: 0000 0000 7544 8a36 c6cc 35b7 238d d4b4
00000030: bb2b 0a37 0000 0000 0000 0000 822e 1eb6
00000040: 0000 0000 303f 43b4 e1d5 ba36 7d6f 6bb5
00000050: b9d9 aab6 e75f 07b7 75f6 b7b5 2c7e 45b6
00000060: 0617 1fb7 0000 0000 0000 0000 9ecb 20b5
00000070: f597 1037 abe6 8834 0000 0000 6ba4 bab7
00000080: 0000 0000 2613 2db7 9921 8ab6 9bd6 a7b6
00000090: 4b37 6cb3 f3de ebb6 4f26 d135 0000 0000
000000a0: 343a e1b6 50be 13b6 ea62 0eb7 4b5c 6bb7
000000b0: 7375 4837 6fe4 b036 d157 32b7 b7ec b836
000000c0: 7ab8 8537 0000 0000 dc3a 26b7 0000 0000
000000d0: 4251 4237 7705 c1b3 fd1f ce35 0000 0000
000000e0: 7bfb d0b5 59fd cb36 bde9 40aa 4f90 5337
000000f0: 0000 0000 0000 0000 b6c8 3a37 0000 0000
00000100: b639 e8b4 2ba8 1b36 c4aa 54b7 8374 6f36
00000110: fcaa 38b7 3ff6 0837 f057 0c34 0000 0000
00000120: 6516 6837 2414 bf36 0000 0000 8292 3ab7
00000130: e26b d729 b847 29b7 29bb 3937 c4fd e435
00000140: 0000 0000 8738 12b5 3ff4 4936 3221 9e36

fc3.weight f4 [4, 84]
0.13588516 -0.06598375 -0.11993092 0.115815625 0.031430025 0.016966293 0.09864658 -0.022859747
0.3494223 0.019166593 0.18595757 -0.054330185 -0.07288098 -0.09941959 -0.21219073 -0.063595265
-0.17102738 0.2115965 -0.27865756 -0.18554032 0.10861488 -0.055646464 0.15607871 0.08666802
-0.386107 -0.1754199 -0.059114635 -0.014648684 0.21509354 0.13619612 0.0117508555 -0.14895459
0.09257136 0.17870641 -0.115070775 -0.21200222 -0.07019365 -0.0969624 0.22193098 0.07413263
-0.08086142 0.16985418 0.053124357 0.14003831 -0.09206956 -0.017541273 -0.1109672 -0.17351869
-0.039347563 -0.22314128 -0.24048719 -0.016780527 0.08902773 -0.022153711 -0.11012351 -0.057688452
-0.23025915 -0.038120084 0.037175253 0.03546058 0.13562731 -0.030357987 -0.06111017 0.17920797
-0.12705 0.034165774 -0.068905085 0.18433404 0.095432945 -0.29490277 0.0006273912 0.033240966
0.11906885 0.18792364 -0.06861664 0.13634174 0.15672864 -0.23927775 0.13169518 -0.16598043
-0.10423118 -0.39780268 0.031701207 0.16660392 0.08737314 -0.26307052 -0.032239083 0.050671298
-0.031204706 -0.10056554 -0.08762439 -0.08870047 0.13545237 0.09565685 -0.008158029 0.031296283
0.080387205 -0.13838643 -0.047954563 0.12805317 0.31203523 0.07884448 -0.113096 0.041257046
0.33669776 0.13344863 0.1535971 0.13977274 0.0178188 0.21490374 0.032157596 0.09488736
0.037911072 -0.008525698 0.009200651 0.088217385 -0.010320245 -0.047512725 -0.037917197 0.10918779
-0.23979579 -0.03755439 -0.28019592 0.16374677 0.25623834 0.22987512 0.15561238 0.06347856
0.044907223 0.15553199 0.056460988 -0.096811436 -0.24953592 0.09841305 0.05950315 -0.0685025
-0.2980309 0.0114401905 0.09898405 -0.021022571 -0.08184799 0.16482815 -0.076137386 -0.047444142
-0.032803524 0.0017361388 -0.021585634 -0.049440984 -0.18208648 0.04061417 0.30215615 0.005512229
0.22888042 -0.16960165 -0.049304403 -0.1332948 -0.10972669 -0.09581252 0.039114475 0.17625274
0.09885984 0.3698498 0.13161466 0.07768904 0.1468378 -0.05655161 -0.08941777 0.10749268
-0.05792756 0.033694077 -0.09827031 -0.065440975 0.36553952 0.35918036 0.22594896 -0.102702886
0.006654398 0.048513062 0.14919527 0.2470128 -0.31224126 0.121157646 0.26054716 0.06405676
0.010254368 -0.035633877 -0.05672499 0.12949477 0.07586434 -0.041264363 -0.030462053 0.19667672
0.4543662 -0.12558727 -0.027284723 0.04609818 -0.21551396 -0.015038618 0.10959153 0.26353154
-0.020815693 0.037945982 0.11967722 -0.11840742 0.0855786 -0.018573184 -0.16500264 -0.003346168
-0.095486 -0.34065405 0.029281314 0.1325457 -0.1439825 0.029416054 0.09638767 -0.098805465
-0.24251166 -0.36388642 0.100915335 0.23918642 0.12540449 -0.06012797 -0.09159844 -0.0044508874
0.034846064 -0.16861103 -0.08499071 -0.12328831 0.057813387 -0.044966448 -0.36337504 0.079118535
-0.01842552 0.2583996 -0.0035557905 0.017342448 -0.23083673 -0.0899484 0.01391532 0.19428329
-0.3439023 -0.10953363 -0.13027468 0.31338665 0.10528096 -0.032951854 0.13234702 -0.022589607
0.06313627 -0.13426615 0.14412989 -0.0028012623 -0.27616027 -0.22952047 -0.37799862 0.10176098
00000000: 7b25 0b3e 7d22 87bd 589e f5bd be30 ed3d
00000010: c5bc 003d e5fc 8a3c 3807 ca3d 5d44 bbbc
00000020: 7be7 b23e 4203 9d3c a96b 3e3e 5489 5ebd
00000030: a042 95bd 7f9c cbbd 8748 59be 3c3e 82bd
00000040: cd21 2fbe c1ac 583e 34ac 8ebe 48fe 3dbe
00000050: 7a71 de3d 8ced 63bd 19d3 1f3e 017f b13d
00000060: d1af c5be 46a1 33be 3022 72bd 0901 70bc
00000070: 7b41 5c3e ff76 0b3e a986 403c 8d87 18be
00000080: 0e96 bd3d d0fe 363e 3aaa ebbd 1c17 59be
00000090: b0c1 8fbd 3994 c6bd e041 633e d9d2 973d
000000a0: ac9a a5bd 41ee 2d3e ed98 593d 3466 0f3e
000000b0: f78e bcbd b7b2 8fbc c542 e3bd e2ae 31be
000000c0: e92a 21bd 267f 64be 4642 76be 5177 89bc
000000d0: 2c54 b63d b37b b5bc 6f88 e1bd ba4a 6cbd
000000e0: 0ec9 6bbe ce23 1cbd 1445 183d 1d3f 113d
000000f0: e3e1 0a3e 50b1 f8bc a84e 7abd 4b82 373e
00000100: 6519 02be 69f1 0b3d 1c1e 8dbd 10c2 3c3e
00000110: 5972 c33d 7ffd 96be 8377 243a ae27 083d
00000120: 5fda f33d 0e6f 403e e286 8cbd 2b9d 0b3e
00000130: 797d 203e 3a05 75be 1adb 063e c6f6 29be
00000140: 2877 d5bd cbac cbbe 20d9 013d 389a 2a3e
00000150: b0f0 b23d 2eb1 86be 210d 04bd b58c 4f3d
00000160: 03a1 ffbc 4ef5 cdbd 6b74 b3bd 98a8 b5bd
00000170: 07b4 0a3e bde7 c33d 41a9 05bc 8830 003d
00000180: 0ca2 a43d 2cb5 0dbe 016c 44bd 5f20 033e
00000190: 15c3 9f3e 3779 a13d e09e e7bd 26fd 283d
000001a0: a663 ac3e c2a6 083e 8f48 1d3e 9620 0f3e
000001b0: bbf8 913c ba0f 5c3e afb7 033d 4e54 c23d
000001c0: a448 1b3d 5faf 0bbc 54be 163c 51ab b43d
000001d0: 3f16 29bc b49c 42bd 104f 1bbd d99d df3d
000001e0: 078d 75be a2d2 19bd d775 8fbe 3cad 273e
000001f0: ac31 833e 6264 6b3e da58 1f3e 0c01 823d
00000200: a3f0 373d c743 1f3e a343 673d 1345 c6bd
00000210: 5886 7fbe c88c c93d 93b9 733d 0a4b 8cbd
00000220: 8297 98be a36f 3b3c 26b8 ca3d 8737 acbc
00000230: eb9f a7bd b6c8 283e ebed 9bbd ca54 42bd
00000240: fd5c 06bd 278f e33a 5bd4 b0bc a182 4abd
00000250: e174 3abe 0b5b 263d 36b4 9a3e ee9f b43b
00000260: a15f 6a3e 0eac 2dbe 6af3 49bd 6f7e 08be
00000270: 63b8 e0bd 5b39 c4bd 8036 203d 997b 343e
00000280: 0777 ca3d f45c bd3e fec5 063e 6e1b 9f3d
00000290: a65c 163e a9a2 67bd aa20 b7bd 1f25 dc3d
000002a0: 7345 6dbd cd02 0a3d f241 c9bd eb05 86bd
000002b0: ff27 bb3e 7de6 b73e 2a5f 673e e455 d2bd
000002c0: 230d da3b a2b5 463d a5c6 183e ecf0 7c3e
000002d0: 16de 9fbe 8021 f83d 7066 853e 3130 833d
000002e0: f001 283c d4f4 11bd 7758 68bd 479a 043e
000002f0: c35e 9b3d d204 29bd 8e8b f9bc 9f65 493e
00000300: b0a2 e83e f399 00be 3684 dfbc 72d1 3c3d
00000310: b1af 5cbe 8964 76bc 8671 e03d 9bed 863e
00000320: ac85 aabc 3f6d 1b3d 5519 f53d 977f f2bd
00000330: d543 af3d ca26 98bc 74f6 28be 624b 5bbb
00000340: 2a8e c3bd 356a aebe 5edf ef3c 0fba 073e
00000350: 2670 13be f0f9 f03c e666 c53d 855a cabd
00000360: fa54 78be 524f babe b3ac ce3d 49ed 743e
00000370: 096a 003e bf48 76bd f797 bbbd c0d8 91bb
00000380: bfba 0e3d 5fa8 2cbe 9c0f aebd 957e fcbd
00000390: bbcd 6c3d bd2e 38bd 4b0c babe e608 a23d
000003a0: 1ef1 96bc f44c 843e 4408 69bb c011 8e3c
000003b0: 7760 6cbe de36 b8bd 15fd 633c 33f2 463e
000003c0: f613 b0be 2b53 e0bd ba66 05be 3774 a03e
000003d0: 8b9d d73d 86f8 06bd fa85 073e d70d b9bc
000003e0: 974d 813d 117d 09be c996 133e 6295 37bb
000003f0: e164 8dbe 6a07 6bbe 0989 c1be 1068 d03d

fc3.bias f4 [4]
4.735331e-06 -1.8601744e-05 -2.664683e-05 4.0513158e-05
00000000: 2fe4 9e36 f10a 9cb7 a287 dfb7 acec 2938
